trained_models/performance_lstm.pth (torch, 222561 bytes, 12 tensors)

lstm.weight_ih_l0 f4 [256, 8]
-0.071328 0.0060890857 -0.027975509 -0.2134159 0.049035724 0.10727807 0.013157389 0.058955975
0.33859774 0.008834348 0.13973281 0.25837994 0.15482663 0.27481002 0.37150857 0.3594063
0.2053298 0.09404296 0.11309325 0.14642435 0.19447231 0.13262476 0.12811595 0.22609878
0.11366691 -0.06650773 -0.0758625 0.04153117 -0.097501844 0.06713328 0.07865276 -0.0075215176
0.17218535 -0.11866612 0.1617482 0.1328025 0.11819807 0.15677135 0.13371192 0.015762758
0.019082919 0.048995715 0.0073436303 -0.03037299 0.08224291 0.06540785 0.061472166 -0.071980014
-0.08061708 0.04277785 -0.08506434 -0.08628748 -0.0011489721 -0.008435688 -0.03614777 0.12216973
0.30396092 0.011319875 0.14819579 0.14877073 0.106731154 0.17054334 0.12387839 0.0413938
-0.09181849 -0.09219492 -0.091117926 -0.18213826 -0.048005443 0.045365565 0.11410121 -0.10216962
0.14435728 0.09218217 0.20637934 0.23373535 0.2736286 0.1748192 0.28620702 0.29149264
-0.09138091 -0.109484985 0.14092748 -0.085427485 0.12566335 -0.08964006 -6.989541e-05 0.07110451
-0.032921694 -0.07112162 0.06668797 -0.08275768 -0.08965455 0.14427069 -0.043355644 0.071437456
-0.017242186 -0.023590282 -0.033694908 0.088073745 0.066618584 0.10997422 0.09263245 0.040342566
-0.027746726 -0.09759639 0.056125812 0.15347825 -0.11631942 -0.098916925 -0.080764264 0.13024895
0.29951668 0.18181412 0.16353261 0.17138435 0.17475615 0.30154225 0.2025038 0.16274858
-0.024194052 0.019420682 -0.089846686 -0.013747931 -0.08336332 -0.002249731 0.07692347 0.116341665
0.09179633 0.5279459 0.11515347 0.34410366 0.27744347 0.15913957 0.14458576 0.29403302
0.11297349 -0.18559182 -0.061821043 0.0062355017 -0.081583336 0.12825134 0.031495262 -0.039352544
0.21569917 0.081265815 0.060562447 0.21133102 0.20143384 0.07690806 0.04498317 0.0226809
0.087955415 0.16725318 0.20647007 0.43146676 0.06499737 0.06280594 0.06875314 0.27192017
0.30423948 -0.029738843 0.26160032 0.08037278 0.30647987 0.101825334 0.26662543 0.25518972
0.35509008 0.1557058 0.27881706 0.28425425 0.18202266 0.3643571 0.18360153 0.14422043
0.3067922 0.11583429 0.2761011 0.14709598 0.19933078 0.24653392 0.160984 0.31208932
0.121561915 -0.07795933 0.092614844 -0.13294533 0.23004997 0.14533785 0.06584179 0.24578495
-0.06541295 -0.08848018 0.06921721 -0.03359707 0.10562132 -0.09603838 0.09858893 -0.07048157
0.05961048 0.16998431 -0.054745384 -0.13172631 -0.017051233 0.06107316 -0.028633153 -0.071621664
0.08219922 0.0005279062 0.07636383 -0.081605196 -0.04884662 -0.002912907 0.08023742 0.14039484
0.256481 0.016203953 0.096495695 0.40438768 0.1552128 0.13250731 0.19261797 0.21060449
0.15135548 -0.08180915 0.01600497 0.047713865 0.107707925 0.009909808 0.045480885 0.011863466
0.017268972 0.07762496 0.06146005 -0.06264848 0.013814466 0.095575355 -0.087046765 -0.03838368
-0.10295004 -0.10244504 0.0502843 -0.16675094 -0.027182337 0.05851688 0.061067633 0.026530173
0.21625689 0.074114576 0.15421009 0.21963778 0.08422731 0.05333792 0.06834949 0.17053574
00000000: 6a14 92bd f486 c73b e52c e5bc b389 5abe
00000010: afd9 483d 9bb4 db3d 1792 573c d27b 713d
00000020: af5c ad3e f1bd 103c 1e16 0f3e 604a 843e
00000030: df8a 1e3e e6b3 8c3e 5f36 be3e 1a04 b83e
00000040: fa41 523e 9899 c03d 6f9d e73d 44f0 153e
00000050: c023 473e c9ce 073e d430 033e 7086 673e
00000060: 32ca e83d 3435 88bd cc5d 9bbd 971c 2a3d
00000070: 0caf c7bd 2c7d 893d b314 a13d 1077 f6bb
00000080: 5b51 303e 3907 f3bd 52a1 253e 61fd 073e
00000090: d411 f23d ab88 203e c7eb 083e e620 813c
000000a0: c853 9c3c bbaf 483d d6a2 f03b c7d0 f8bc
000000b0: f96e a83d 8df4 853d 3dca 7b3d 426a 93bd
000000c0: 911a a5bd d437 2f3d 3636 aebd 7eb7 b0bd
000000d0: 1b99 96ba d735 0abc af0f 14bd 2034 fa3d
000000e0: c4a0 9b3e ff76 393c a3c0 173e 5b57 183e
000000f0: dd95 da3d eaa2 2e3e f4b3 fd3d 8c8c 293d
00000100: 550b bcbd b1d0 bcbd 099c babd 7482 3abe
00000110: 5ba1 44bd 3ed1 393d e5ad e93d 4e3e d1bd
00000120: 65d2 133e 01ca bc3d 1b55 533e 5258 6f3e
00000130: 0c19 8c3e ce03 333e ba89 923e 863e 953e
00000140: ea25 bbbd aa39 e0bd 4b4f 103e 9bf4 aebd
00000150: e5ad 003e 3595 b7bd d094 92b8 3e9f 913d
00000160: e6d8 06bd 36a8 91bd b493 883d dc7c a9bd
00000170: ce9c b7bd b2bb 133e b095 31bd cd4d 923d
00000180: 7c3f 8dbc 6840 c1bc ac03 0abd 0260 b43d
00000190: 536f 883d 2a3a e13d 15b6 bd3d 3f3e 253d
000001a0: 1a4d e3bc 9ee0 c7bd 2ee4 653d 6729 1d3e
000001b0: e038 eebd f594 cabd bc67 a5bd fb5f 053e
000001c0: 405a 993e 7b2d 3a3e 1875 273e 617f 2f3e
000001d0: 47f3 323e bf63 9a3e 285d 4f3e 90a7 263e
000001e0: 9b32 c6bc 1f18 9f3c 8a01 b8bd 013f 61bc
000001f0: 63ba aabd 3970 13bb 0d8a 9d3d 8a44 ee3d
00000200: b7ff bb3d 7627 073f 95d5 eb3d 5b2e b03e
00000210: 120d 8e3e 7cf5 223e 4a0e 143e 7f8b 963e
00000220: a55e e73d c80b 3ebe 1038 7dbd 2e53 cc3b
00000230: 2a15 a7bd 5254 033e 2d01 013d 2230 21bd
00000240: 3ee0 5c3e b16e a63d 5410 783d 2967 583e
00000250: ac44 4e3e f981 9d3d 4640 383d 4bcd b93c
00000260: f821 b43d 6b44 2b3e e46c 533e 36e9 dc3e
00000270: 571d 853d 67a0 803d 72ce 8c3d 1f39 8b3e
00000280: 47c5 9b3e e09e f3bc 7af0 853e 7c9a a43d
00000290: eeea 9c3e cd89 d03d 2183 883e 3aa8 823e
000002a0: 5ece b53e 5771 1f3e 1cc1 8e3e c689 913e
000002b0: 2664 3a3e 048d ba3e 0a02 3c3e 85ae 133e
000002c0: de13 9d3e 873a ed3d 205d 8d3e 54a0 163e
000002d0: 5e1d 4c3e 6373 7c3e fdd8 243e 2cca 9f3e
000002e0: 74f5 f83d 24a9 9fbd daac bd3d d222 08be
000002f0: 3892 6b3e 72d3 143e 0fd8 863d 0daf 7b3e
00000300: 3af7 85bd 1935 b5bd c1c1 8d3d 159d 09bd
00000310: fe4f d83d c5af c4bd fee8 c93d a458 90bd
00000320: 1e2a 743d 5e10 2e3e b23c 60bd 43e3 06be
00000330: 07af 8bbc da27 7a3d 1390 eabc 61ae 92bd
00000340: 1158 a83d 2f63 0a3a a464 9c3d a020 a7bd
00000350: 6513 48bd 78e6 3ebb 8453 a43d aac3 0f3e
00000360: 7a51 833e 27be 843c 899f c53d e70b cf3e
00000370: 1bf0 1e3e ffaf 073e a53d 453e b4a8 573e
00000380: eefc 1a3e 8e8b a7bd db1c 833c 9d6f 433d
00000390: f995 dc3d bf5c 223c 2a4a 3a3d fc5e 423c
000003a0: a977 8d3c d6f9 9e3d 89bd 7b3d d94d 80bd
000003b0: 1256 623c 03bd c33d 9345 b2bd 3538 1dbd
000003c0: 78d7 d2bd b5ce d1bd e9f6 4d3d c2c0 2abe
000003d0: 7ead debc 65af 6f3d 0e22 7a3d ce55 d93c
000003e0: 7272 5d3e 62c9 973d 40e9 1d3e bae8 603e
000003f0: 5e7f ac3d dd78 5a3d d1fa 8b3d eca0 2e3e

lstm.weight_hh_l0 f4 [256, 64]
-0.122940704 -0.10328416 -0.035589952 0.10175995 -0.047989257 -0.01570181 0.08293731 -0.10795549
-0.11899713 -0.17685495 0.024858931 0.05975368 -0.09606023 0.0025700347 0.1315375 0.08251747
-0.12714854 -0.010026726 -0.006693743 -0.13595755 -0.058432743 0.06647913 0.024528727 -0.0016545036
-0.122921884 -0.07862512 0.034069028 -0.03157434 0.012657017 -0.038355917 0.05698837 0.03778346
0.10674762 0.025042368 0.053217188 -0.09921386 0.062524594 -0.023691805 -0.11421461 0.055104826
-0.05675041 -0.13371481 -0.096812926 0.011148001 -0.08572316 -0.117751606 -0.09560781 0.0709689
-0.095212646 -0.0042571817 0.014018771 0.020060714 -0.017260017 -0.109268256 0.05724128 -0.037011385
0.066206746 -0.08262523 -0.12504716 -0.085720174 0.08156204 -0.09465001 0.058359507 -0.04705645
-0.16749443 -0.19029759 0.029707529 0.10568186 -0.06776531 -0.37088987 0.1332928 0.22515444
0.17158301 0.0017363947 -0.15023305 -0.2668228 0.124348 0.2005425 0.14382744 -0.33811748
-0.21296817 0.11598695 -0.1841899 0.016333416 0.09189817 -0.125713 0.21663943 0.026147407
-0.19765663 0.20656139 -0.14311293 0.050644845 -0.083516985 0.20667653 -0.29697478 -0.009145117
0.25833797 0.17766076 -0.078829445 -0.30800292 -0.25369668 -0.14294527 -0.03917177 -0.077914566
-0.21002002 0.07481817 0.15276773 -0.12081816 0.21740994 0.32205865 0.14869975 -0.033893008
-0.0033249331 0.2950679 -0.18644923 -0.15260977 -0.1554698 -0.3044765 -0.25581703 -0.18424204
-0.37049714 0.17479815 0.085861966 -0.23369238 0.10480278 0.026681315 0.24439892 -0.37672848
-0.32874498 -0.29412958 0.06325811 0.18222956 0.035310626 -0.2850348 0.3453844 0.16897751
0.29458117 -0.12054093 -0.3651613 -0.40271002 0.3104355 0.3099085 0.12847914 -0.34527314
-0.3020523 0.13332988 -0.0526137 -0.22142754 0.21828124 -0.113926604 0.19397657 -0.059419304
-0.23699336 0.2141439 -0.23089088 0.24481378 -0.1341928 0.35563546 -0.34579387 -0.34487692
0.2002944 0.22246858 -0.11005831 -0.4035139 -0.2788588 -0.2715992 -0.117915355 -0.17292485
-0.28849274 0.08643798 0.3179424 -0.21725841 0.2275612 0.27668947 0.21557637 -0.298685
0.1226511 0.20757473 -0.19925253 -0.23595266 -0.1895537 -0.15692775 -0.29153362 -0.35519946
-0.3830023 0.35036686 0.17233399 -0.33941594 0.21863759 -0.12749606 0.20042038 -0.29149497
0.010595087 0.07136627 -0.12731135 0.0459667 0.12146502 0.07497133 -0.070168346 0.09429808
0.015194725 -0.020055156 -0.04636296 0.07387106 0.04099311 0.07100583 0.118200354 -0.032261204
0.01922888 0.0961212 0.02155153 0.11722226 -0.03854758 -0.03211574 0.08164963 0.016837768
-0.05529257 -0.07422476 -0.123205826 -0.09147493 0.092673704 -0.040169388 0.016686272 0.05022189
0.051968373 -0.12441688 -0.041156624 -0.07473585 0.05590144 0.01689592 0.031001037 0.07063095
-0.029074421 -0.05761438 0.10688191 0.0017415144 -0.10855601 0.012555665 -0.028311333 0.048620347
-0.022735374 0.058368232 0.0896295 -0.035623424 -0.106551796 0.06781119 0.07488946 0.10758473
0.012706147 -0.060726047 -0.07338529 0.084934115 0.0028575761 0.048840713 0.034509603 0.12141265
00000000: 56c8 fbbd a586 d3bd c5c6 11bd 8567 d03d
00000010: 6290 44bd 15a1 80bc 09db a93d c517 ddbd
00000020: c4b4 f3bd 7719 35be f5a4 cb3c 46c0 743d
00000030: 3abb c4bd 076e 283b c4b1 063e ebfe a83d
00000040: 3a33 02be 2347 24bc 3057 dbbb 7538 0bbe
00000050: 2c57 6fbd 3626 883d 78f0 c83c eedb d8ba
00000060: 78be fbbd 3506 a1bd f78b 0b3d 1854 01bd
00000070: 615f 4f3c 181b 1dbd a36c 693d d4c2 1a3d
00000080: 7f9e da3d a725 cd3c 44fa 593d a330 cbbd
00000090: e50c 803d 5115 c2bc 59e9 e9bd 99b5 613d
000000a0: 1e73 68bd 89ec 08be db45 c6bd 1ba6 363c
000000b0: a08f afbd c127 f1bd 07ce c3bd 2558 913d
000000c0: d9fe c2bd d47f 8bbb fdae 653c 5e56 a43c
000000d0: e164 8dbc 09c8 dfbd d575 6a3d 4099 17bd
000000e0: 6797 873d 6b37 a9bd 5d0c 00be 0f8e afbd
000000f0: 000a a73d ddd7 c1bd 610a 6f3d 44be 40bd
00000100: a983 2bbe 5fdd 42be 345d f33c bb6f d83d
00000110: 8ac8 8abd 47e5 bdbe e87d 083e e38e 663e
00000120: 75b3 2f3e bd97 e33a b1d6 19be ff9c 88be
00000130: 2aaa fe3d 035b 4d3e 8047 133e bc1d adbe
00000140: 5414 5abe 918a ed3d 479c 3cbe a8cd 853c
00000150: 1c35 bc3d e9ba 00be bad6 5d3e 1633 d63c
00000160: 8066 4abe d484 533e 328c 12be f870 4f3d
00000170: f40a abbd 03a3 533e 140d 98be 67d5 15bc
00000180: e044 843e b4ec 353e 5571 a1bd 8fb2 9dbe
00000190: 88e4 81be 3f60 12be 9472 20bd ac91 9fbd
000001a0: 7d0f 57be 453a 993d 256f 1c3e 836f f7bd
000001b0: b6a0 5e3e dfe4 a43e bf44 183e 65d3 0abd
000001c0: 1fe7 59bb 2413 973e 8cec 3ebe bc45 1cbe
000001d0: 7a33 1fbe 58e4 9bbe 73fa 82be f2a9 3cbe
000001e0: cdb1 bdbe 49fe 323e 66d8 af3d 0e4d 6fbe
000001f0: d7a2 d63d c692 da3c b643 7a3e 8ee2 c0be
00000200: 4351 a8be 2798 96be 788d 813d 639a 3a3e
00000210: e0a1 103d 15f0 91be 39d6 b03e 7108 2d3e
00000220: 58d3 963e 2ade f6bd 6cf6 babe 0230 cebe
00000230: 67f1 9e3e 54ac 9e3e 0990 033e a4c7 b0be
00000240: 99a6 9abe a187 083e 7781 57bd e7bd 62be
00000250: 1e85 5f3e 5a52 e9bd cba1 463e a861 73bd
00000260: 63ae 72be 8a48 5b3e a96e 6cbe 77b0 7a3e
00000270: d669 09be da15 b63e e50b b1be b593 b0be
00000280: fa19 4d3e cece 633e 4066 e1bd 6099 cebe
00000290: 95c6 8ebe 0d0f 8bbe 9b7d f1bd 3613 31be
000002a0: 52b5 93be 6506 b13d 59c9 a23e fd78 5ebe
000002b0: ce05 693e 3eaa 8d3e 0dc0 5c3e 3eed 98be
000002c0: 8030 fb3d 788e 543e db08 4cbe 939d 71be
000002d0: 5d1a 42be abb1 20be e543 95be b4dc b5be
000002e0: e118 c4be 4963 b33e 5278 303e edc7 adbe
000002f0: 88e2 5f3e 548e 02be 003b 4d3e d43e 95be
00000300: 0497 2d3c 7b28 923d e85d 02be 9447 3c3d
00000310: a7c2 f83d 928a 993d 6cb4 8fbd 5a1f c13d
00000320: 4cf3 783c b64a a4bc 16e7 3dbd b649 973d
00000330: 64e8 273d 816b 913d 0713 f23d 5324 04bd
00000340: e285 9d3c 31db c43d d68c b03c 3912 f03d
00000350: 11e4 1dbd cb8b 03bd ec37 a73d 5cef 893c
00000360: 767a 62bd 2703 98bd 5653 fcbd 3557 bbbd
00000370: b6cb bd3d a888 24bd a6b1 883c 78b5 4d3d
00000380: cadc 543d 47ce febd d993 28bd 1c0f 99bd
00000390: e9f8 643d 5069 8a3c e3f5 fd3c f6a6 903d
000003a0: 7b2d eebc 0efd 6bbd e7e4 da3d 8743 e43a
000003b0: 9d52 debd 47b6 4d3c 2bed e7bc 2126 473d
000003c0: 893f babc 8713 6f3d ac8f b73d dee9 11bd
000003d0: d437 dabd 98e0 8a3d a55f 993d 6255 dc3d
000003e0: 712d 503c e0bb 78bd 074b 96bd f0f1 ad3d
000003f0: 2c46 3b3b 330d 483d f159 0d3d 32a7 f83d

lstm.bias_ih_l0 f4 [256]
0.036932677 0.13391496 0.3000132 0.022052351 0.12094301 0.081471324 0.02042381 0.078310154
0.13725796 0.32546702 0.11243313 0.06767475 0.046005324 -0.033659074 0.3493626 0.09975975
0.12751722 0.059229426 -0.04066098 0.19498882 0.18600152 0.15459822 0.25035095 0.13164239
0.07288644 -0.041529965 -0.03729439 0.22395255 -0.081802726 -0.0065502324 0.049115527 0.20640294
-0.065514125 0.11047237 -0.010654991 -0.0075312573 -0.089708954 0.16458246 -0.040088166 0.04514864
-0.04341512 0.22251517 -0.08236247 0.053838797 0.06271148 -0.011915847 0.050608937 0.25345472
0.24912621 -0.06490147 -0.02165742 0.12646256 0.11161035 -0.042215463 -0.08980149 0.05897696
0.013059514 -0.03310937 0.08826243 0.048325032 0.0807096 0.053816397 0.066416964 0.15781529
0.13671973 -0.19676572 -0.02874125 0.09952205 -0.041610677 0.07738473 0.049531825 -0.14004524
-0.042508464 -0.10273153 -0.009065216 0.017615624 0.0072648237 0.11387162 -0.1557438 0.1295626
-0.046822585 0.026228935 -0.08822484 -0.042418174 -0.17819898 -0.09401981 0.026060432 -0.084426075
0.086761 -0.0030393016 -0.032137234 0.0198853 -0.1137561 0.070055805 0.13313074 -0.018320294
-0.04220745 -0.0031206275 -0.023187593 -0.031569567 0.0045558233 -0.07345143 -0.0064117094 0.040973805
0.0066849873 -0.19781712 -0.024822295 -0.031977005 0.039200686 0.108777314 0.14206536 0.05633277
-0.033299226 -0.043930937 0.078404285 -0.00064895547 -0.012339012 -0.11516912 0.003862856 0.012352574
0.066426024 0.02823065 0.04820107 -0.05954264 -0.0076808473 0.04439868 -0.054645568 0.14678758
-0.14483982 0.052451957 -0.09642101 0.13272011 0.0034880193 -0.08278834 -0.07769565 -0.06384609
-0.036814205 -0.079251505 0.020667592 -0.022380987 0.073517054 0.010708714 0.064971045 -0.10220693
0.12581848 0.14664155 0.1399438 -0.0028010341 0.086967364 0.09225875 -0.031050857 -0.1299976
0.043341156 0.06146646 -0.13618286 0.01888598 -0.061624035 -0.043493293 -0.15451488 0.024603661
-0.055458054 -0.048663836 -0.08682214 -0.09479854 -0.015826695 0.013679584 -0.11828975 -0.043799058
-0.07519126 -0.079034954 0.1424662 -0.11402509 -0.0072220154 0.012829105 0.10263327 -0.04676635
-0.07189249 0.095960036 0.044548355 -0.08023321 -0.14827968 0.0030439515 -0.072159104 -0.06933228
-0.13445479 0.09752482 0.09491124 -0.121664055 -0.09058583 -0.036537096 0.050445102 -0.1311019
-0.017408196 0.35728982 0.0996727 0.109438136 0.15223461 0.00754458 -0.09587833 0.2243678
0.06992274 0.18044166 -0.10653913 0.09630749 0.07212023 -0.07836098 0.18900208 -0.09376834
0.23694329 -0.031602778 0.0017914758 0.22064734 0.119842045 0.15787138 0.2474222 0.15672414
0.051699422 0.107975796 0.11455922 0.20253178 0.14986408 0.120561086 -0.03703567 0.13448898
0.08434433 0.08016677 0.037721664 0.10342472 -0.06821821 0.016039116 0.057987142 -0.029932791
0.10088325 0.24738148 0.1303979 0.122995235 0.10990353 -0.06414609 0.11393222 0.21522494
0.20624383 -0.029860716 0.05095304 -0.104360834 0.08620636 0.05176477 0.028116342 -0.0015905418
-0.06781577 -0.050003834 -0.006391814 0.061341118 -0.014446444 0.20851383 -0.08592151 0.14253922
00000000: b846 173d 0121 093e 559b 993e 22a7 b43c
00000010: f8b0 f73d 70da a63d d64f a73c 1361 a03d
00000020: 5a8d 0c3e 9da3 a63e 5743 e63d 0f99 8a3d
00000030: 1470 3c3d 19de 09bd a8df b23e d74e cc3d
00000040: e093 023e 8e9a 723d 218c 26bd 26ab 473e
00000050: 2f77 3e3e ff4e 1e3e 002e 803e 43cd 063e
00000060: 7c45 953d 531b 2abd 01c2 18bd d153 653e
00000070: 3088 a7bd 55a3 d6bb 5d2d 493d 4b5b 533e
00000080: 452c 86bd 573f e23d 4592 2ebc c4c8 f6bb
00000090: 54b9 b7bd 4e88 283e 7d33 24bd c8ed 383d
000000a0: 0ed4 31bd 04db 633e a8ad a8bd 1286 5c3d
000000b0: e06e 803d af3a 43bc 514b 4f3d d1c4 813e
000000c0: f11a 7f3e 10eb 84bd e76a b1bc 677f 013e
000000d0: f893 e43d 1fea 2cbd d8e9 b7bd d391 713d
000000e0: 92f7 553c b19d 07bd efc2 b43d 78f0 453d
000000f0: 134b a53d 956e 5c3d 9e05 883d 559a 213e
00000100: 4200 0c3e f47c 49be c572 ebbc 37d2 cb3d
00000110: f56f 2abd e37b 9e3d e2e1 4a3d 0568 0fbe
00000120: 5b1d 2ebd e964 d2bd 4686 14bc a44e 903c
00000130: c20d ee3b 8635 e93d 4d7b 1fbe 0fac 043e
00000140: 0ac9 3fbd 10de d63c 3aaf b4bd aebe 2dbd
00000150: cb79 36be 758d c0bd b07c d53c 94e7 acbd
00000160: c0af b13d 052f 47bb 55a2 03bd 7fe6 a23c
00000170: f5f8 e8bd 6b79 8f3d 6d53 083e 7114 96bc
00000180: b8e1 2cbd 7183 4cbb e8f3 bdbc 174f 01bd
00000190: 0449 953b b46d 96bd 5119 d2bb 26d4 273d
000001a0: bd0d db3b 9290 4abe 2058 cbbc 52fa 02bd
000001b0: e690 203d a4c6 de3d 9579 113e 31bd 663d
000001c0: c564 08bd edf0 33bd 6d92 a03d aa1e 2aba
000001d0: 9129 4abc cadd ebbd f827 7d3b 7362 4a3c
000001e0: 5e0a 883d f743 e73c 7c6e 453d fce2 73bd
000001f0: 9eaf fbbb 64db 353d 08d4 5fbd 7c4f 163e
00000200: e450 14be ddd7 563d 6178 c5bd c8e7 073e
00000210: 4197 643b ef8c a9bd e61e 9fbd bdc1 82bd
00000220: 7eca 16bd 9d4e a2bd 154f a93c 5558 b7bc
00000230: 1c90 963d 9a73 2f3c 8a0f 853d de51 d1bd
00000240: 8fd6 003e 3429 163e 6d4d 0f3e 8e91 37bb
00000250: f21b b23d 28f2 bc3d 5e5e febc 171e 05be
00000260: 7f86 313d 41c4 7b3d 8573 0bbe c5b6 9a3c
00000270: 7c69 7cbd 0626 32bd 2639 1ebe 9e8d c93c
00000280: fc27 63bd bb53 47bd cecf b1bd bd25 c2bd
00000290: fca6 81bc 5520 603c e541 f2bd a466 33bd
000002a0: e0fd 99bd 14dd a1bd a9e2 113e fd85 e9bd
000002b0: a8a6 ecbb 2b31 523c 6431 d23d 128e 3fbd
000002c0: 5f3c 93bd b286 c43d 5678 363d 4f51 a4bd
000002d0: a1d6 17be 087d 473b 27c8 93bd 15fe 8dbd
000002e0: 84ae 09be 18bb c73d d360 c23d 012b f9bd
000002f0: 1085 b9bd eca7 15bd 869f 4e3d 943f 06be
00000300: a29b 8ebc b1ee b63e 3321 cc3d 1a21 e03d
00000310: 64e3 1b3e 8638 f73b dc5b c4bd acc0 653e
00000320: a733 8f3d b3c5 383e 3031 dabd dc3c c53d
00000330: c5b3 933d b97b a0bd c389 413e 9e09 c0bd
00000340: 43a1 723e ea71 01bd f4cf ea3a 60f1 613e
00000350: bf6f f53d 09a9 213e 3f5c 7d3e 4b7c 203e
00000360: c6c2 533d 6a22 dd3d 069e ea3d 7e64 4f3e
00000370: f875 193e bbe8 f63d b7b2 17bd 7bb7 093e
00000380: b8bc ac3d 7a2e a43d 0882 1a3d 57d0 d33d
00000390: fdb5 8bbd 7764 833c ed83 6d3d 9d35 f5bc
000003a0: e19b ce3d 9251 7d3e 0787 053e ede4 fb3d
000003b0: 1a15 e13d 065f 83bd 4c55 e93d ed63 5c3e
000003c0: 9531 533e 769e f4bc 23b4 503d 22bb d5bd
000003d0: f68c b03d 4c07 543d 3e54 e63c ba79 d0ba
000003e0: ffe2 8abd d2d0 4cbd 6c72 d1bb d340 7b3d
000003f0: c7b0 6cbc a684 553e 9ef7 afbd cdf5 113e

lstm.bias_hh_l0 f4 [256]
0.12056622 0.3582302 0.31004855 -0.10727011 0.23222493 0.13714805 0.10822929 0.19495404
0.047733005 0.25787938 0.10523173 -0.044697203 0.14657153 -0.036106117 0.23961097 0.06993007
0.121431984 -0.018174015 -0.0074801417 0.19396544 0.13444191 0.21541108 0.28934765 0.09687974
0.07289734 0.036564693 0.06737762 0.28865018 -0.059455875 -0.07573489 0.05733748 0.14283554
0.033670425 0.07338535 0.007982611 -0.09700357 -0.046076667 0.19937707 0.12827532 0.021218583
-0.08335253 0.4263549 0.1570634 0.22792152 0.084016666 0.12917688 0.09536286 0.07181483
0.10164415 -0.030759338 0.04999509 -0.013197912 -0.043213088 -0.030164668 -0.0582243 0.14928488
-0.0338994 0.1521926 0.09619962 -0.05499122 0.05509184 0.19541 0.01757291 0.17168763
-0.052774444 -0.016631221 -0.2031798 -0.08369961 -0.04930064 -0.08895685 -0.09754466 -0.090857334
0.05406255 -0.026032155 0.053984925 0.040347945 0.04363693 -0.027426463 -0.13994068 0.15833373
0.0027081291 -0.048099216 -0.054035943 0.017791519 -0.05419196 -0.14799966 -0.08293173 -0.10918984
0.09281238 0.12803464 0.020459479 -0.09730093 0.08744085 0.1271537 0.009464048 -0.027929898
0.08416959 0.04784918 0.06791435 0.13735883 -0.1331438 -0.12677522 0.09249055 0.058939386
-0.0821065 -0.15865444 0.050010856 0.028105604 -0.12226599 0.035658598 0.009924402 -0.100355
-0.0017396011 -0.0018277905 -0.06856193 -0.04670291 0.032250587 0.0850873 -0.046587765 -0.08888254
-0.0947828 0.063605726 -0.002082121 -0.10562413 -0.11452092 -0.12724088 0.12555242 -0.0023045586
0.003957537 0.10587928 0.044730693 0.019505367 0.12077197 -0.10254419 0.07894418 0.001482263
0.15366319 -0.006300823 -0.044323068 -0.11341796 0.105274096 0.04996602 -0.04104868 -0.14555897
-0.012384023 0.082856186 -0.03574385 0.06537818 0.0054180236 -0.014294096 0.0143284295 -0.028200125
-0.058035742 0.10329786 -0.029062586 0.036420133 0.1287962 0.17166944 -0.09715715 -0.10751905
-0.021005677 0.0075609195 -0.0981679 -0.08672065 -0.014429731 0.03257065 -0.1118217 -0.011770765
-0.1402905 0.08828861 0.0025443437 -0.010382029 0.101341896 0.10427271 -0.07584326 0.11294552
-0.002701148 0.006785863 -0.09941944 -0.12676784 -0.057978347 -0.10979896 -0.03403426 0.061901264
0.0051954673 0.03633214 -0.06493998 -0.021002112 0.1341629 -0.09642479 0.12722224 -0.14421597
0.052480586 0.20432144 0.27327973 -0.08234875 0.24947296 0.10410367 0.11726337 0.2529718
0.027964633 0.27543655 0.02299549 -0.0631906 -0.08531681 -0.10454638 0.40153727 -0.04909733
0.24082188 -0.0025531254 -0.025992459 0.26239276 0.15380815 0.3285307 0.26054844 0.10735277
0.11526618 -0.028276702 0.026083222 0.15949894 -0.06748012 0.13007611 0.042851225 0.048420135
0.089810856 0.025303194 0.06523325 0.092172004 -0.02546674 0.12964115 0.07770886 -0.07658052
0.13080125 0.27014375 0.1230748 0.15547688 -0.09969234 0.08474272 -0.02331323 0.073728964
0.23772368 -0.013818777 -0.0054462804 0.06556016 0.039241567 -0.041108686 -0.08258333 0.05758193
0.11317536 -0.08787565 -0.019554297 0.0109525025 0.13802464 -0.018011464 0.03137891 -0.029561868
00000000: 6ceb f63d f369 b73e afbe 9e3e 6eb0 dbbd
00000010: 5fcc 6d3e 8a70 0c3e 51a7 dd3d 08a2 473e
00000020: af83 433d c408 843e bc83 d73d 6a14 37bd
00000030: d916 163e 02e4 13bd 945c 753e 7f37 8f3d
00000040: 55b1 f83d ace1 94bc fa1b f5bb e09e 463e
00000050: 24ab 093e b994 5c3e 6025 943e e368 c63d
00000060: 334b 953d dcc4 153d 47fd 893d f5c9 933e
00000070: 0188 73bd e51a 9bbd b5da 6a3d 7b43 123e
00000080: 00ea 093d 0f4b 963d 7fc9 023c cfa9 c6bd
00000090: e3ba 3cbd 8129 4c3e 9b5a 033e 98d2 ad3c
000000a0: bbb4 aabd 304b da3e 3ad5 203e 4264 693e
000000b0: ee10 ac3d f246 043e 9a4d c33d a713 933d
000000c0: cf2a d03d 02fb fbbc a7c7 4c3d 0e3c 58bc
000000d0: 3500 31bd e51b f7bc 9b7c 6ebd 23de 183e
000000e0: 19da 0abd 60d8 1b3e 4e04 c53d 793e 61bd
000000f0: fba7 613d 8f19 483e 10f5 8f3c e2ce 2f3e
00000100: 042a 58bd 333e 88bc 5e0e 50be b36a abbd
00000110: 78ef 49bd 022f b6bd 7fc5 c7bd 6913 babd
00000120: b170 5d3d 6341 d5bc 4c1f 5d3d e343 253d
00000130: a3bc 323d 76ad e0bc 9c4c 0fbe 3d22 223e
00000140: de7a 313b af03 45bd cb54 5dbd 85bf 913c
00000150: 63f8 5dbd 398d 17be 1cd8 a9bd ec9e dfbd
00000160: 6b14 be3d 831b 033e a39a a73c b645 c7bd
00000170: 3014 b33d 9434 023e 180f 1b3c 3ecd e4bc
00000180: 1b61 ac3d 80fd 433d ae16 8b3d cba7 0c3e
00000190: d956 08be 5dd1 01be af6b bd3d 6d6a 713d
000001a0: 7427 a8bd 4f76 22be 2fd8 4c3d b93d e63c
000001b0: 9766 fabd c00e 123d f699 223c ec86 cdbd
000001c0: 5403 e4ba 7992 efba 326a 8cbd 8d4b 3fbd
000001d0: 3119 043d 4042 ae3d d0d2 3ebd 0d08 b6bd
000001e0: 7c1d c2bd b843 823d 3274 08bb 7751 d8bd
000001f0: f289 eabd 6f4b 02be d090 003e 1408 17bb
00000200: 3aae 813b 3cd7 d83d 8837 373d b8c9 9f3c
00000210: 4b57 f73d b002 d2bd 7cad a13d 7e48 c23a
00000220: e259 1d3e 2277 cebb 1b8c 35bd ad47 e8bd
00000230: f299 d73d 2ba9 4c3d a922 28bd 690d 15be
00000240: 5be6 4abc 81b0 a93d 2568 12bd ffe4 853d
00000250: ad89 b13b c931 6abc cac1 6a3c f303 e7bc
00000260: e3b6 6dbd d48d d33d a914 eebc 472d 153d
00000270: 27e3 033e 1dca 2f3e 54fa c6bd f332 dcbd
00000280: 1914 acbc 97c1 f73b 410c c9bd 999a b1bd
00000290: ae6a 6cbc cd68 053d c702 e5bd 2bda 40bc
000002a0: 50a8 0fbe a9d0 b43d 01bf 263b 6319 2abc
000002b0: 578c cf3d ee8c d53d b653 9bbd fb4f e73d
000002c0: be05 31bb f25b de3b 6b9c cbbd 6ecf 01be
000002d0: b47a 6dbd 47de e0bd 8267 0bbd 2e8c 7d3d
000002e0: bd3e aa3b 03d1 143d 41ff 84bd 9f0c acbc
000002f0: 0062 093e 5c7a c5bd 8c46 023e 5aad 13be
00000300: e2f5 563d a439 513e 52eb 8b3e 76a6 a8bd
00000310: d775 7f3e 4e34 d53d c727 f03d 8585 813e
00000320: 1616 e53c 0506 8d3e 0a61 bc3c 136a 81bd
00000330: 94ba aebd 6a1c d6bd 4b96 cd3e 481a 49bd
00000340: 039a 763e 5652 27bb 23ee d4bc 5858 863e
00000350: e27f 1d3e 2d35 a83e 9b66 853e c5db db3d
00000360: ad10 ec3d 8ba4 e7bc 7bac d53c b153 233e
00000370: 0433 8abd ac32 053e c484 2f3d 3154 463d
00000380: c1ee b73d a548 cf3c 0399 853d adc4 bc3d
00000390: a09f d0bc a6c0 043e d325 9f3d 3fd6 9cbd
000003a0: c3f0 053e 4850 8a3e a40e fc3d 5535 1f3e
000003b0: 7f2b ccbd 978d ad3d 63fb bebc 36ff 963d
000003c0: d66d 733e 2768 62bc b676 b2bb 6844 863d
000003d0: c4bb 203d 9561 28bd 7321 a9bd 08db 6b3d
000003e0: 7cc8 e73d 26f8 b3bd 5530 a0bc 2072 333c
000003f0: 5556 0d3e c78c 93bc 2c87 003d bb2b f2bc

lstm.weight_ih_l1 f4 [256, 64]
-0.18597063 -0.0051434017 -0.012657513 -0.025962098 0.231356 -0.07753758 0.085053325 0.00776312
0.20668803 0.10521453 -0.11362929 -0.008814851 0.029406171 0.10885169 0.068744004 -0.10718082
0.084332235 0.09731884 -0.001156184 -0.10413936 0.21392079 -0.06142402 -0.08479668 0.025602901
0.04109582 0.2193513 0.013023679 -0.04501271 -0.074204415 0.16645996 -0.061489128 -0.06325779
0.06485048 -0.0141307525 -0.10856715 0.009079275 -0.14858204 -0.045251593 0.030239983 -0.09367807
-0.097246364 -0.25964704 -0.0177197 -0.10828904 0.15118255 0.120920636 0.18201022 -0.022506949
-0.06722479 -0.047666274 -0.11810722 -0.05754374 -0.12564524 -0.042770635 -0.027759667 -0.13479804
-0.06690695 0.06651205 0.043033108 -0.03353989 0.09928231 -0.0033785314 0.06602848 -0.016886706
-0.10415786 0.17051148 0.2535323 0.118763775 0.37092504 0.014528464 0.07704175 -0.12870468
-0.03631536 0.124926485 -0.06785888 0.026616693 0.009207128 -0.032849886 -0.24867822 -0.09934623
-0.048148192 -0.027768182 0.056552246 0.16946562 0.10988822 0.037727553 -0.1366045 -0.19839075
-0.12192646 0.13021651 0.06802115 -0.10355594 0.017871944 0.12573601 0.044956356 0.056572273
0.007293947 0.14362031 -0.016591867 -0.046487875 0.09277351 -0.008334217 -0.035567205 -0.038715594
0.055633944 -0.11687471 0.0819588 -0.23810588 -0.06752075 -0.012828481 0.089862674 0.057299
-0.1467389 -0.0058424682 -0.09422006 0.005761475 0.028680969 -0.087265536 -0.04161204 -0.009226748
-0.038757596 -0.0127245495 0.036341798 0.043236148 0.12299879 -0.14672966 -0.08344321 -0.016404806
-0.044811413 0.17815964 0.25883275 -0.09572894 0.28287613 -0.08912945 0.11643297 -0.066289335
-0.05111835 0.18460123 -0.021286001 -0.12723157 -0.08091822 -0.01162208 -0.23166785 0.125518
-0.04664607 -0.06599654 -0.08116019 0.015112527 0.14890994 0.13287747 -0.096102685 -0.17229848
-0.13240951 0.050902985 -0.007700631 0.0665266 -0.125789 -0.11062118 -0.041157007 0.04955686
0.08480053 0.08184922 0.084202856 -0.018383441 -0.114536315 -0.03523595 0.007991316 -0.049306933
0.03629572 -0.12612057 -0.015016672 -0.061667625 0.04329277 -0.007264615 0.13515627 0.11075777
-0.013727658 -0.124294646 0.01836695 -0.0678414 0.069322444 0.08056327 -0.13276169 0.044715315
0.07948421 -0.034129195 0.036131393 -0.115601406 -0.07742676 0.02520005 -0.09480252 0.04650859
-0.027210303 0.31423786 -0.1554849 -0.02114617 0.44009334 0.09993447 0.07793209 -0.22027028
-0.035368912 0.26573995 -0.1304967 0.08309776 0.09246423 -0.069064625 0.34362507 0.09067244
0.09528856 -0.07893962 -0.019000543 -0.032329295 0.076934285 0.2294707 0.08707306 -0.08175868
-0.07069222 0.036631845 -0.12071713 -0.035338067 -0.080304615 -0.09425794 0.005726161 0.0056445175
-0.022230452 0.01493589 -0.0039959922 -0.070185915 -0.11761921 -0.012348169 -0.057962935 -0.03781475
-0.13051708 -0.50098604 0.056693267 -0.24017562 -0.028501237 -0.061870363 -0.0006962768 0.04292286
-0.38831514 0.122443095 -0.056265935 -0.02194314 0.119038984 -0.019778987 -0.052010927 0.20129156
0.046663105 -0.019084971 0.07972588 -0.06397476 -0.0006070589 0.036365297 0.014649124 -0.09486772
00000000: 166f 3ebe fb89 a8bb 7561 4fbc 77ae d4bc
00000010: 96e8 6c3e 06cc 9ebd 7030 ae3d c561 fe3b
00000020: 07a6 533e b77a d73d 79b6 e8bd 2a6c 10bc
00000030: 36e5 f03c a3ed de3d a8c9 8c3d 9e81 dbbd
00000040: 61b6 ac3d 1a4f c73d 198b 97ba 0447 d5bd
00000050: 0d0e 5b3e c197 7bbd e2a9 adbd 2dbd d13c
00000060: 1754 283d a19d 603e 4561 553c 3f5f 38bd
00000070: 7cf8 97bd 7b74 2a3e 06dc 7bbd 4d8d 81bd
00000080: 54d0 843d ac84 67bc 7458 debd 3dc1 143c
00000090: e425 18be bc59 39bd d7b9 f73c 4ada bfbd
000000a0: 1a29 c7bd 75f0 84be e728 91bc a5c6 ddbd
000000b0: 99cf 1a3e 3da5 f73d e360 3a3e 7e60 b8bc
000000c0: 27ad 89bd b63d 43bd 33e2 f1bd fcb2 6bbd
000000d0: 25a9 00be 4330 2fbd 3e68 e3bc 7f08 0abe
000000e0: 8306 89bd 7837 883d 7c43 303d 2061 09bd
000000f0: 8654 cb3d 5a6a 5dbb f139 873d fd55 8abc
00000100: b750 d5bd 909a 2e3e fcce 813e 6c3a f33d
00000110: e3e9 bd3e cb08 6e3c 11c8 9d3d 29cb 03be
00000120: 6abf 14bd 75d9 ff3d 99f9 8abd 400b da3c
00000130: 7ed9 163c 9a8d 06bd 81a5 7ebe 0976 cbbd
00000140: 0a37 45bd 197a e3bc 54a3 673d 6588 2d3e
00000150: 130d e13d 3588 1a3d 0de2 0bbe f226 4bbe
00000160: 94b4 f9bd 7a57 053e ac4e 8b3d 2315 d4bd
00000170: 2f68 923c f1c0 003e 2824 383d 54b8 673d
00000180: 1002 ef3b 3411 133e abeb 87bc 126a 3ebd
00000190: 0a00 be3d 3d8c 08bc ebae 11bd 3e94 1ebd
000001a0: 6be0 633d 025c efbd 04da a73d 07d2 73be
000001b0: 5248 8abd 8d2e 52bc ec09 b83d 5bb2 6a3d
000001c0: b942 16be 2d72 bfbb 72f6 c0bd c1ca bc3b
000001d0: 5af4 ea3c 46b8 b2bd 6371 2abd c92b 17bc
000001e0: 49c0 1ebd a17a 50bc 23db 143d 6318 313d
000001f0: cae6 fb3d 4d40 16be 46e4 aabd 5f63 86bc
00000200: 2c8c 37bd 7b6f 363e ba85 843e 890d c4bd
00000210: 24d5 903e 8089 b6bd 6974 ee3d b4c2 87bd
00000220: 7a61 51bd 1b08 3d3e fb5f aebc fe48 02be
00000230: 74b8 a5bd 896a 3ebc 563a 6dbe ca87 003e
00000240: f30f 3fbd 3229 87bd 5037 a6bd 889a 773c
00000250: d97b 183e 0811 083e 7cd1 c4bd 036f 30be
00000260: 5c96 07be a67f 503d 9355 fcbb 193f 883d
00000270: d5ce 00be 5b8d e2bd 4094 28bd 22fc 4a3d
00000280: e6ab ad3d 90a0 a73d 8c72 ac3d df98 96bc
00000290: 0492 eabd 9253 10bd 02ee 023c 11f6 49bd
000002a0: d2aa 143d c025 01be 7d08 76bc 3197 7cbd
000002b0: c253 313d 020c eebb 6866 0a3e f8d4 e23d
000002c0: f9e9 60bc 318e febd 4976 963c 6ff0 8abd
000002d0: edf8 8d3d 5bfe a43d aef2 07be 6827 373d
000002e0: 9ec8 a23d 0ecb 0bbd 83fe 133d 6ec0 ecbd
000002f0: ec91 9ebd 5670 ce3c d327 c2bd cb7f 3e3d
00000300: 24e8 debc c9e3 a03e 6f37 1fbe bc3a adbc
00000310: ea53 e13e 72aa cc3d dc9a 9f3d 888e 61be
00000320: fede 10bd 110f 883e eda0 05be 292f aa3d
00000330: e35d bd3d c171 8dbd a0ef af3e 79b2 b93d
00000340: a626 c33d 18ab a1bd 07a7 9bbc b96b 04bd
00000350: b98f 9d3d 5efa 6a3e 5c53 b23d 1871 a7bd
00000360: 15c7 90bd 460b 163d 8b3a f7bd a6be 10bd
00000370: bf76 a4bd 4f0a c1bd 85a2 bb3b a5f5 b83b
00000380: a31c b6bc aab5 743c d0f0 82bb a2bd 8fbd
00000390: 57e2 f0bd fa4f 4abc 8b6a 6dbd a4e3 1abd
000003a0: 45a6 05be 9f40 00bf 3337 683d 99f0 75be
000003b0: 6d7b e9bc c76b 7dbd 5886 36ba e1cf 2f3d
000003c0: 3ed1 c6be 72c3 fa3d 1c77 66bd 1ac2 b3bc
000003d0: b6ca f33d 8b07 a2bc 6909 55bd 601f 4e3e
000003e0: d021 3f3d 1658 9cbc 5247 a33d 3305 83bd
000003f0: 0823 1fba c7f3 143d e102 703c 024a c2bd

lstm.weight_hh_l1 f4 [256, 64]
0.11625719 -0.033938255 0.03037119 -0.109626435 -0.14702347 0.11216776 -0.10742891 0.10589693
0.05420903 -0.13538048 -0.21030815 -0.0380471 0.12389153 0.07780448 -0.019611653 0.1545233
0.009681395 0.21122071 0.057377744 0.121520445 -0.13316248 0.16039982 -0.111143 -0.0073474
0.010089041 0.15602456 0.17982033 -0.12838762 0.028321674 0.14737873 -0.03414716 -0.04486432
0.19707161 0.045028716 0.095882766 0.03716248 -0.033124324 -0.033045366 0.19706288 -0.016583562
-0.17956893 0.15809153 0.07468167 0.0682578 0.019092774 0.031843174 0.12681605 0.004187363
0.061989475 0.0724628 -0.18290709 -0.024628155 -0.082989976 -0.08872782 -0.06284181 -0.18313783
-0.025719984 -0.09032051 -0.08343836 0.16800813 -0.09928002 0.1579173 0.012993743 -0.2709421
-0.006895927 -0.06578735 0.096611395 0.089748316 0.040014822 0.06632397 0.03205589 -0.075373515
-0.028820287 -0.120930426 -0.016841432 -0.044403557 0.08663908 -0.06404044 -0.05664258 -0.04302905
0.034136347 -0.031825326 -0.108625405 0.03255613 -0.08088358 0.04931517 -0.1167011 -0.11443852
0.0040413006 -0.003511902 0.11349875 0.108394496 0.028393112 0.006216527 -0.014595795 0.047077682
0.08121324 0.0587139 0.08093414 0.11167989 -0.08473027 -0.16063926 0.048986822 0.0794649
-0.07724143 0.022988508 -0.021677725 0.034175184 0.08258354 -0.10516732 0.13508496 0.1052404
0.12198157 -0.026460938 -0.15230903 0.017522156 0.02486014 0.027991682 0.100743346 -0.061277118
-0.09163204 -0.0060111536 -0.008972295 0.097590886 -0.10663747 0.07656964 0.02726715 -0.0120205125
-0.088409565 0.045433886 0.09157167 -0.01218034 0.037260648 -0.018284965 -0.08096385 0.020002384
-0.098243155 0.11589544 -0.06203413 0.06957515 -0.021898217 -0.102864675 0.081871554 0.11650392
0.06376479 -0.026396863 0.09574174 0.040368777 0.024060179 -0.031656086 0.08527312 -0.047168735
0.079419844 -0.033238634 -0.054791436 0.062984705 0.07352694 0.07537048 0.03657144 -0.09130485
-0.05298709 0.07553229 0.041620024 0.068452604 -0.085971825 0.017679946 0.10462101 0.11447519
0.08128273 0.019106328 -0.11055581 0.0021824273 0.070606016 0.13043654 0.10232891 -0.078562856
-0.030865854 -0.105264306 0.017323127 0.07725061 0.06372267 0.076092124 0.07450032 0.018075185
0.013324783 0.0920364 -0.0003320437 -0.11992169 -0.06849116 -0.08739925 -0.023267647 0.07448716
0.07946864 -0.11619304 0.06796646 -0.10097864 0.05492287 0.10864887 -0.017345127 0.05237778
-0.04034786 0.11069865 -0.02948719 0.08400118 -0.0078499345 -0.06907987 0.108390704 0.09266441
0.050761633 -0.0979639 0.05503319 0.09093642 0.065797895 0.012189462 0.021736594 0.062876284
0.1291907 -0.015512238 0.06375048 0.08056803 -0.008323517 0.12505463 -0.08718508 0.04135857
-0.10508333 0.08001594 -0.11434734 -0.064409144 -0.039180513 0.076554045 0.022510208 -0.03167888
-0.107460104 0.11686921 -0.026699444 -0.15368557 -0.011257238 -0.050086625 -0.008812752 0.078935124
-0.014736374 -0.03613532 0.063007504 -0.039868567 0.0035845228 0.06130833 -0.06341095 0.10423487
0.03426983 0.10012787 -0.078405716 0.044800986 -0.020219535 -0.04310649 -0.06953519 0.023240464
00000000: 4018 ee3d d702 0bbd 00cd f83c d383 e0bd
00000010: 528d 16be 36b8 e53d b003 dcbd 7de0 d83d
00000020: 4a0a 5e3d 2ea1 0abe 055b 57be 47d7 1bbd
00000030: d8ba fd3d f557 9f3d 9ea8 a0bc 5b3b 1e3e
00000040: b79e 1e3c 3e4a 583e ed04 6b3d b6df f83d
00000050: bf5b 08be da3f 243e f19e e3bd 75c2 f0bb
00000060: 814c 253c e7c4 1f3e d222 383e 0b78 03be
00000070: db02 e83c 73ea 163e e4dd 0bbd a6c3 37bd
00000080: 24cd 493e 0870 383d 2f5e c43d af37 183d
00000090: 5fad 07bd 945a 07bd daca 493e 40da 87bc
000000a0: ebe0 37be bfe2 213e b4f2 983d bfca 8b3d
000000b0: 7368 9c3c fd6d 023d 11dc 013e 2636 893b
000000c0: ade8 7d3d 6067 943d ff4b 3bbe fcc0 c9bc
000000d0: a6f6 a9bd eeb6 b5bd 35b3 80bd 7c88 3bbe
000000e0: b7b2 d2bc f6f9 b8bd bbe1 aabd 530a 2c3e
000000f0: 5353 cbbd 13b5 213e b5e3 543c ecb8 8abe
00000100: 3af7 e1bb 85bb 86bd 32dc c53d f7cd b73d
00000110: 95e6 233d ddd4 873d 094d 033d 6e5d 9abd
00000120: 8618 ecbc 5faa f7bd 0bf7 89bc 81e0 35bd
00000130: d46f b13d a227 83bd 0d02 68bd 3b3f 30bd
00000140: 8ed2 0b3d 465b 02bd ff76 debd 9459 053d
00000150: 4aa6 a5bd b4fe 493d fc00 efbd be5e eabd
00000160: e36c 843b f027 66bb 0872 e83d effd dd3d
00000170: ac98 e83c 02b4 cb3b 3423 6fbc 87d4 403d
00000180: 2153 a63d fd7d 703d ccc0 a53d 6db8 e43d
00000190: 1087 adbd 9e7e 24be 68a6 483d 7ebe a23d
000001a0: c130 9ebd 6552 bc3c 7c95 b1bc 47fb 0b3d
000001b0: 8f21 a93d f761 d7bd b653 0a3e 4788 d73d
000001c0: 79d1 f93d 9cc4 d8bc e6f6 1bbe a08a 8f3c
000001d0: 7ea7 cb3c d04e e53c 8752 ce3d b7fd 7abd
000001e0: 94a9 bbbd 36f9 c4bb 8800 13bc bbdd c73d
000001f0: bf64 dabd 8bd0 9c3d 5c5f df3c aff1 44bc
00000200: 1310 b5bd e218 3a3d ed89 bb3d 0c90 47bc
00000210: 9f9e 183d 5aca 95bc 60d0 a5bd 0adc a33c
00000220: b533 c9bd 975a ed3d 8017 7ebd 6b7d 8e3d
00000230: e463 b3bc b7aa d2bd 46ac a73d 9b99 ee3d
00000240: 1d97 823d 3c3e d8bc 3f14 c43d bb59 253d
00000250: da19 c53c d0a9 01bd aca3 ae3d 0134 41bd
00000260: dfa6 a23d 3c25 08bd fc6c 60bd 20fe 803d
00000270: 4b95 963d d75b 9a3d efcb 153d 0afe babd
00000280: fe08 59bd acb0 9a3d c279 2a3d e130 8c3d
00000290: ff11 b0bd 89d5 903c 8a43 d63d f871 ea3d
000002a0: 8f77 a63d e084 9c3c 166b e2bd 0e07 0f3b
000002b0: e399 903d 2891 053e d291 d13d 90e5 a0bd
000002c0: 63da fcbc d094 d7bd 3be9 8d3c 9135 9e3d
000002d0: 0881 823d 30d6 9b3d a093 983d 6912 943c
000002e0: 3150 5a3c 957d bc3d 2716 aeb9 8199 f5bd
000002f0: 1845 8cbd 61fe b2bd cb9b bebc b98c 983d
00000300: 74c0 a23d 9ef6 edbd 0032 8b3d e4cd cebd
00000310: cef6 603d 4c83 de3d 5e17 8ebc 158a 563d
00000320: cc43 25bd f9b5 e23d 1f8f f1bc d008 ac3d
00000330: 039d 00bc bf79 8dbd f2fb dd3d d7c6 bd3d
00000340: 6eeb 4f3d 4ca1 c8bd 7b6a 613d e03c ba3d
00000350: 0cc1 863d 4fb6 473c f110 b23c 48c5 803d
00000360: 914a 043e 0b27 7ebc 9d8f 823d da00 a53d
00000370: 5c5f 08bc 520e 003e 178e b2bd 9b67 293d
00000380: ee35 d7bd 66df a33d f02e eabd f1e8 83bd
00000390: bf7b 20bd 5ec8 9c3d 5467 b83c b7c1 01bd
000003a0: 0b14 dcbd 2059 ef3d cbb8 dabc c05f 1dbe
000003b0: 4770 38bc a227 4dbd 5c63 10bc bda8 a13d
000003c0: d570 71bc a102 14bd 140a 813d 394d 23bd
000003d0: 50ea 6a3b 721e 7b3d 9add 81bd 1779 d53d
000003e0: 855e 0c3d d70f cd3d 2d93 a0bd 3d81 373d
000003f0: 70a3 a5bc 6e90 30bd 7768 8ebd c962 be3c

lstm.bias_ih_l1 f4 [256]
0.06886621 -0.08917898 -0.085040905 -0.033981685 0.12705135 0.1399489 0.098277 0.09617644
-0.01985807 -0.002271851 -0.061001066 -0.032422137 0.021868095 0.036194373 0.061305765 -0.081325494
0.13693129 0.14865528 -0.0065319245 -0.017692193 -0.057227302 0.03113163 0.04466965 -0.053677574
-0.07590888 0.14867356 0.17293945 -0.017099047 0.13750324 0.021783434 0.049430475 0.14646046
0.122827515 -0.07139204 0.06578248 0.117541954 0.07329058 0.055651437 0.08743419 0.006466834
0.015311458 -0.026757745 0.097212136 -0.060696248 -0.030560575 0.12057005 0.14554314 0.06032781
0.0759847 -0.021289734 0.025617981 0.0334933 0.021147039 0.04975575 -0.09370957 -0.08490925
0.04887566 0.12268769 -0.04832157 -0.012897642 -0.019940212 -0.0031000886 -0.024557678 -0.066404685
-0.09341343 0.045451656 -0.04894168 0.1025805 0.11162758 -0.09816133 -0.06276696 -0.10252511
0.041587394 -0.032748275 0.14562303 -0.013122347 0.03638534 0.06944425 -0.087375864 0.066508256
0.026901795 0.022265585 0.09916453 0.15359424 -0.03884314 0.12661758 0.09583573 0.09517298
-0.09868121 0.10123428 0.08446724 -0.086654015 0.12913276 -0.08072861 -0.029687585 -0.03232453
0.14733163 0.08719504 0.072113 0.03402405 -0.09269015 -0.012821908 0.112952694 0.06957812
0.0428611 -0.016388277 -0.14973514 -0.049604814 -0.10524847 -0.06603455 -0.015930206 0.014434807
0.15565467 0.05615955 0.04982911 0.0142652765 -0.07966269 -0.03799462 0.06313652 0.08764122
0.11590885 0.12649357 0.14219809 -0.10822352 -0.09291532 0.016896622 0.021412538 -0.024493108
0.12569124 0.1205416 -0.12748507 -0.113402784 -0.066949666 0.12656227 -0.08629594 0.11847306
-0.08389559 -0.09650162 0.022158913 0.06781403 -0.060783308 0.06719541 0.12287115 0.15462625
0.08705801 0.058195267 -0.10835063 0.055265788 -0.10911734 0.023282565 -0.14103186 0.0701789
0.045096528 0.046470843 -0.08150751 -0.023139149 0.068126716 0.031129465 0.051255416 0.025643213
0.13978174 0.09612654 0.02522726 -0.0060931505 0.057281725 -0.09924423 -0.07914834 0.0144217815
-0.08734307 0.13470876 0.03334779 0.00026733763 -0.0024455625 0.08471472 -0.09393166 0.14278889
-0.08540624 -0.031228587 -0.012649155 -0.076490104 0.05033134 0.0074808137 -0.053882048 -0.13603409
0.10973781 -0.11172904 -0.12513562 0.019138768 0.1363795 0.0333576 -0.042308383 -0.010056736
0.15179466 -0.09599227 0.059723623 0.10495178 0.0052722325 -0.0719446 0.14802033 -0.06295151
0.1019485 0.030432012 -0.08367138 -0.0011073439 0.20888406 0.071100324 0.15630896 0.044324547
0.17687926 0.1024087 -0.05568201 -0.01463746 -0.08172151 -0.05426189 0.12888329 -0.07786839
-0.08785796 -0.00045846062 0.17518921 -0.10385399 -0.091391064 -0.09810216 0.08401682 -0.07275931
-0.048030525 0.073999316 -0.018394805 -0.043201767 -0.050994325 0.038071204 0.06658962 0.035387818
0.11375075 -0.063131005 0.16146702 -0.055124026 -0.09760237 0.08637469 -0.067082234 -0.04458163
-0.105321094 -0.053936966 0.055560134 0.00986122 0.21252075 0.033761635 -0.10468754 0.097561754
0.018135043 0.016673347 0.11650975 0.13526328 0.09143147 0.062063873 -0.019764991 -0.10803926
00000000: ba09 8d3d 78a3 b6bd ed29 aebd 6130 0bbd
00000010: c019 023e c44e 0f3e 7445 c93d 27f8 c43d
00000020: 64ad a2bc 56e3 14bb 41dc 79bd 13cd 04bd
00000030: b824 b33c 8d40 143d c11b 7b3d fb8d a6bd
00000040: b737 0c3e 1739 183e c109 d6bb 38ef 90bc
00000050: 2d67 6abd c307 ff3c 86f7 363d 04dd 5bbd
00000060: 1d76 9bbd e23d 183e 0a17 313e 4d13 8cbc
00000070: a6cd 0c3e 2c73 b23c 9c77 4a3d bbf9 153e
00000080: fe8c fb3d fd35 92bd f7b8 863d d6b9 f03d
00000090: 5f19 963d c3f2 633d b210 b33d bce7 d33b
000000a0: e9dc 7a3c 0f33 dbbc 2817 c73d a19c 78bd
000000b0: 2c5a fabc 6eed f63d 4309 153e 4b1a 773d
000000c0: de9d 9b3d cf67 aebc cddc d13c 4530 093d
000000d0: 8e3c ad3c afcc 4b3d ceea bfbd e7e4 adbd
000000e0: d831 483d af43 fb3d d7ec 45bd a250 53bc
000000f0: a859 a3bc db2a 4bbb 2f2d c9bc 2eff 87bd
00000100: 8a4f bfbd 842b 3a3d 1277 48bd ba15 d23d
00000110: 009d e43d cf08 c9bd f78b 80bd aff8 d1bd
00000120: 8b57 2a3d 0e23 06bd 341e 153e 1dff 56bc
00000130: cb08 153d c938 8e3d 1ef2 b2bd 7b35 883d
00000140: 2761 dc3c 5166 b63c c616 cb3d cf47 1d3e
00000150: fc19 1fbd 0aa8 013e 8645 c43d 0dea c23d
00000160: 6019 cabd eb53 cf3d 29fd ac3d a977 b1bd
00000170: 613b 043e 0b55 a5bd 6133 f3bc ba66 04bd
00000180: 1ade 163e 5093 b23d fbaf 933d cd5c 0b3d
00000190: 55d4 bdbd fb12 52bc be53 e73d f97e 8e3d
000001a0: 1f8f 2f3d b540 86bc 2b54 19be 6b2e 4bbd
000001b0: 838c d7bd 1f3d 87bd 1080 82bc f87f 6c3c
000001c0: f063 1f3e 8e07 663d 9c19 4c3d e8b8 693c
000001d0: 3126 a3bd 3fa0 1bbd b84d 813d 3d7d b33d
000001e0: 9f61 ed3d 8887 013e 609c 113e 4ba4 ddbd
000001f0: 634a bebd c96a 8a3c 5969 af3c c5a5 c8bc
00000200: 34b5 003e 84de f63d 728b 02be b83f e8bd
00000210: e81c 89bd 8a99 013e edbb b0bd 01a2 f23d
00000220: 73d1 abbd a4a2 c5bd 9c86 b53c 15e2 8a3d
00000230: ebf7 78bd bf9d 893d dfa3 fb3d 5856 1e3e
00000240: 784b b23d 295e 6e3d efe6 ddbd 615e 623d
00000250: e978 dfbd 14bb be3c a86a 10be f5b9 8f3d
00000260: 23b7 383d 3658 3e3d 69ed a6bd 508e bdbc
00000270: 0586 8b3d 3803 ff3c 33f1 513d b711 d23c
00000280: f222 0f3e fedd c43d 66a9 ce3c 0da9 c7bb
00000290: 3ea0 6a3d 8f40 cbbd 8618 a2bd 5649 6c3c
000002a0: ece0 b2bd 18f1 093e b197 083d 7329 8c39
000002b0: bb45 20bb e97e ad3d 3e5f c0bd 4037 123e
000002c0: 77e9 aebd 18d3 ffbc 673e 4fbc d8a6 9cbd
000002d0: 3c28 4e3d 9d21 f53b 6cb3 5cbd 854c 0bbe
000002e0: 38be e03d 32d2 e4bd 8d23 00be e8c8 9c3c
000002f0: 11a7 0b3e fba1 083d 8e4b 2dbd 02c5 24bc
00000300: 0f70 1b3e 9897 c4bd c2a0 743d f5f0 d63d
00000310: b1c2 ac3b b157 93bd a492 173e b9ec 80bd
00000320: 60ca d03d 8e4c f93c e75b abbd 4c24 91ba
00000330: b4e5 553e 0c9d 913d 750f 203e a88d 353d
00000340: d61f 353e a7bb d13d d212 64bd f5d1 6fbc
00000350: 9b5d a7bd b741 5ebd fbf9 033e 7679 9fbd
00000360: e0ee b3bd 8b5d f0b9 cd64 333e 67b1 d4bd
00000370: 3d2b bbbd c9e9 c8bd 0311 ac3d d502 95bd
00000380: a8bb 44bd f48c 973d b4b0 96bc 56f4 30bd
00000390: 6ddf 50bd 8df0 1b3d 2460 883d d1f2 103d
000003a0: 27f6 e83d d44a 81bd 9c57 253e bbc9 61bd
000003b0: c0e3 c7bd 37e5 b03d 6962 89bd 3a9b 36bd
000003c0: 96b2 d7bd 02ed 5cbd 0693 633d f490 213c
000003d0: 0a9f 593e a449 0a3d 6c66 d6bd 75ce c73d
000003e0: f18f 943c 8b96 883c aa9c ee3d 7582 0a3e
000003f0: 6c40 bb3d b036 7e3d 31ea a1bc b043 ddbd

lstm.bias_hh_l1 f4 [256]
-0.0024089795 0.062070053 0.09040045 0.092507645 0.11426355 -0.025582751 0.08835415 0.06813886
0.071493186 -0.045356203 0.097685486 0.080002524 0.080970205 0.0152112525 0.19193779 0.15974222
0.18442436 0.05700043 0.044318683 -0.03595168 -0.039369762 0.12346358 -0.0607105 -0.11119463
-0.06481434 0.115506396 0.01826494 -0.05947992 0.04743581 0.06536445 -0.05787523 0.018986506
0.1511594 0.15832868 0.12617205 0.053485412 0.089995764 0.057193726 -0.0667857 -0.028916646
0.03302835 -0.020679543 0.14869069 0.047397915 0.010685252 -0.044644807 0.116215326 0.10518241
0.044825908 0.025091095 0.03167114 0.13946088 0.23911718 0.13235967 0.01579545 0.04992902
0.12533163 -0.008585065 0.14592694 0.11510357 0.065682724 -0.058540244 0.0050215237 -0.056970324
-0.036751594 -0.04044656 -0.06493561 -0.06251164 0.059877247 0.06345975 -0.056101896 -0.08760067
-0.06958705 -0.03296391 -0.026044896 -0.12509722 -0.034681123 0.044001218 -0.016315794 -0.05651668
-0.08047874 -0.09875752 -0.019102339 0.04241311 -0.0025334894 -0.06346894 -0.102129065 -0.102181725
0.058972064 0.00044452664 -0.05849237 0.09361831 0.037251037 -0.051259715 0.05230718 0.0057043703
0.1542536 0.14671712 0.09398292 0.053779222 -0.13003816 -0.049964637 0.015651416 -0.044226963
-0.04748151 -0.084079005 -0.16266401 0.095862515 -0.095206484 -0.024619542 -0.03986795 -0.0080541065
-0.070734955 0.07898557 -0.043433208 -0.092690684 -0.0019250539 -0.031182567 0.058076553 -0.070456654
0.008072028 0.0027626203 0.1393331 -0.11051732 0.058697723 0.13290294 -0.06513504 0.089137174
0.108852185 -0.0010169444 0.027459234 -0.072352424 0.06371515 0.123805396 -0.04902423 0.13179769
-0.15008104 -0.040522825 -0.15570934 0.06660139 0.053223323 -0.062512025 -0.06861258 -0.08733082
0.029873453 -0.035347417 0.034338176 0.13342606 0.0021985264 0.044592988 -0.102163754 -0.029271288
-0.12600966 -0.021255868 -0.012486576 0.065688625 -0.021710614 0.03182249 -0.045368798 0.0345572
0.012379707 0.07802265 -0.060131833 0.11599327 0.10904828 0.11024857 -0.09919159 0.021132985
0.049300265 0.04438169 -0.05846588 -0.02155983 -0.09461617 0.09816792 -0.0020256892 0.11545389
0.12499093 -0.10480192 -0.018832037 0.08286652 -0.066250205 -0.06465277 -0.023474835 0.0632385
0.096891545 0.09976203 -0.012203938 0.042647753 0.0029436182 0.14389482 -0.005710022 -0.05148461
0.15006614 0.09094099 -0.03896953 -0.08239202 0.12186372 -0.09233718 0.1569113 -0.10126894
0.06498012 0.11270863 0.07799251 -0.025382733 0.081768334 -0.059221797 0.17604166 -0.025799457
0.05239621 -0.09073911 -0.008072204 0.09155521 -0.07377291 -0.046997488 0.059465725 -0.058567997
0.006779693 -0.008614027 0.05103386 -0.05039003 0.10843858 -0.05146955 -0.048331242 -0.013098148
0.012098087 -0.08095636 -0.11961052 -0.08730608 -0.11614666 0.052357744 -0.012232302 0.12299521
0.07629899 -0.10489254 0.30291757 0.11159866 0.07372506 0.111947365 0.003280252 0.09473664
-0.021558123 0.076446965 0.17663638 -0.08625072 0.019687667 0.017970879 -0.028350642 0.041568257
0.065881774 0.04996804 0.11802719 0.09019764 -0.00937845 0.09993737 0.10152012 0.10765031
00000000: f8df 1dbb 2b3d 7e3d df23 b93d a674 bd3d
00000010: 0203 ea3d eb92 d1bc 05f3 b43d 638c 8b3d
00000020: 056b 923d 6dc7 39bd 540f c83d 5dd8 a33d
00000030: b5d3 a53d 9e38 793c 578b 443e 7793 233e
00000040: bdd9 3c3e 4879 693d 8287 353d 1242 13bd
00000050: 3042 21bd 79da fc3d 93ab 78bd 03ba e3bd
00000060: 61bd 84bd 9e8e ec3d 5ba0 953c 37a1 73bd
00000070: 0d4c 423d ccdd 853d 940e 6dbd 9789 9b3c
00000080: 88c9 1a3e ea20 223e 3f33 013e 8513 5b3d
00000090: b34f b83d f843 6a3d f1c6 88bd 9ae2 ecbc
000000a0: bc48 073d 2568 a9bc 5f42 183e 5124 423d
000000b0: 3211 2f3c 79dd 36bd 4d02 ee3d e069 d73d
000000c0: 5f9b 373d d78b cd3c 99b9 013d d5ce 0e3e
000000d0: 22db 743e 4b89 073e 7665 813c 5f82 4c3d
000000e0: ef56 003e 5fa8 0cbc df6d 153e 6cbb eb3d
000000f0: aa84 863d e5c7 6fbd 988b a43b b759 69bd
00000100: d788 16bd 4bab 25bd f6fc 84bd 1a06 80bd
00000110: d841 753d 2ff7 813d 1acb 65bd fb67 b3bd
00000120: a883 8ebd 2a05 07bd 1b5c d5bc 7c19 00be
00000130: cb0d 0ebd 9f3a 343d b3a8 85bc 097e 67bd
00000140: 0ad2 a4bd 6241 cabd 827c 9cbc 5fb9 2d3d
00000150: e608 26bb 01fc 81bd 0b29 d1bd a744 d1bd
00000160: b18c 713d 5b0f e939 b295 6fbd f5ba bf3d
00000170: 8b94 183d b5f5 51bd 0e40 563d baeb ba3b
00000180: a8f4 1d3e 033d 163e 1e7a c03d 9a47 5c3d
00000190: b928 05be b8a7 4cbd 6637 803c 5527 35bd
000001a0: f97b 42bd 9d31 acbd 6591 26be 9153 c43d
000001b0: 9efb c2bd ecae c9bc 934c 23bd 5ff5 03bc
000001c0: 7ddd 90bd 30c3 a13d 05e7 31bd 9dd4 bdbd
000001d0: 1752 fcba 9572 ffbc aee1 6d3d 944b 90bd
000001e0: 8a40 043c 140d 353b 56ad 0e3e e856 e2bd
000001f0: 066d 703d b517 083e 8565 85bd 8d8d b63d
00000200: e5ed de3d fe4a 85ba 30f2 e03c 822d 94bd
00000210: 177d 823d af8d fd3d a2cd 48bd f9f5 063e
00000220: d8ae 19be 43fb 25bd 4572 1fbe 4f66 883d
00000230: b300 5a3d 4e06 80bd c184 8cbd 80da b2bd
00000240: 2cb9 f43c 74c8 10bd 30a6 0c3d d7a0 083e
00000250: 2715 103b 23a7 363d 3b3b d1bd 57ca efbc
00000260: ad08 01be c920 aebc 7f94 4cbc c287 863d
00000270: 75da b1bc 4d58 023d a2d4 39bd da8b 0d3d
00000280: 41d4 4a3c 57ca 9f3d cc4c 76bd e18d ed3d
00000290: b454 df3d 01ca e13d f624 cbbd 151f ad3c
000002a0: 13ef 493d 93c9 353d eb79 6fbd 3e9e b0bc
000002b0: 1fc6 c1bd 430c c93d 6dc1 04bb 1773 ec3d
000002c0: 3ffb ff3d 64a2 d6bd a545 9abc ecb5 a93d
000002d0: 30ae 87bd ac68 84bd 4c4e c0bc 3083 813d
000002e0: 136f c63d 0950 cc3d 07f3 47bc 69af 2e3d
000002f0: b8e9 403b 2a59 133e 231b bbbb 87e1 52bd
00000300: f0aa 193e 453f ba3d 849e 1fbd 26bd a8bd
00000310: b093 f93d 471b bdbd 5bad 203e 1766 cfbd
00000320: 4c14 853d c8d3 e63d 89ba 9f3d 73ef cfbc
00000330: 2876 a73d 8e92 72bd 4444 343e 6259 d3bc
00000340: 699d 563d 6dd5 b9bd 4741 04bc 4c81 bb3d
00000350: 4016 97bd 7080 40bd 5592 733d ffe4 6fbd
00000360: 3028 de3b d921 0dbc e108 513d c765 4ebd
00000370: 0c15 de3d bcd1 52bd fbf6 45bd 9d99 56bc
00000380: 0e37 463c 73cc a5bd 5cf6 f4bd 88cd b2bd
00000390: 4dde edbd 1375 563d fe69 48bc eae4 fb3d
000003a0: a542 9c3d e6d1 d6bd 0318 9b3e d78d e43d
000003b0: 2afd 963d a944 e53d 7ff9 563b 4905 c23d
000003c0: a99a b0bc 3a90 9c3d 2be0 343e 38a4 b0bd
000003d0: 0848 a13c aa37 933c 9b3f e8bc 7a43 2a3d
000003e0: 06ed 863d 4aab 4c3d 3db8 f13d 8ab9 b83d
000003f0: 12a8 19bc f7ab cc3d c8e9 cf3d c477 dc3d
