best_models/congestion_prediction_lstm.pth (torch, 16441 bytes, 5 tensors)

lstm.weight_ih_l0 f4 [96, 8]
0	0x3dc92970	0.09822357
1	0xbd6b3b67	-0.057429697
2	0x3e2dc49d	0.16969533
3	0x3e16280e	0.14663717
4	0x3e65a269	0.22425236
5	0x3d3b169e	0.045675866
6	0x3cd86591	0.026415618
7	0x3c2d609d	0.010582116
8	0x3e267916	0.16257128
9	0x3e0b039e	0.13575599
10	0x3f4ffac2	0.81242
11	0x3eb40866	0.35162657
12	0x3ecad7fe	0.39617914
13	0x3bdc8df9	0.0067307916
14	0x3debcd23	0.11513736
15	0x3eb382c0	0.35060692
16	0x3e54e1ae	0.20789215
17	0x3dff901e	0.1247866
18	0xbdb98d7d	-0.0906019
19	0x3d96f033	0.07370033
20	0xbe0b78ae	-0.13620254
21	0xbde47acf	-0.111562364
22	0x3b18ec3a	0.0023334161
23	0x3e7bdc6e	0.24595806
24	0x3d40ab37	0.047038283
25	0x3d9d4d41	0.07680751
26	0x3f0c6df3	0.5485527
27	0x3cc8a528	0.024492815
28	0xbca26a50	-0.019826084
29	0xbd78f039	-0.06077597
30	0xbd736efa	-0.059432007
31	0x3d214aa8	0.03937784
32	0xbcf15c60	-0.029462993
33	0x3e175089	0.14776815
34	0xbdbc4a8f	-0.091939084
35	0xbc8dc20a	-0.01730444
36	0x3e7044dd	0.2346377
37	0x3e0e1dce	0.13878557
38	0x3d04dbad	0.03243606
39	0x3e6c54cc	0.23079222
40	0xbe11b462	-0.14228967
41	0x3e66d8c5	0.22543629
42	0xbf744b31	-0.95427233
43	0x3e630e1a	0.22173348
44	0x3e16531c	0.14680141
45	0x3d86e2aa	0.065862015
46	0x3e72d6f6	0.23714814
47	0xbdfbb12a	-0.12289651
48	0xbe0d0cd2	-0.13774422
49	0x3e55c025	0.20874079
50	0xbea1fc50	-0.31637812
51	0x3d9dddd9	0.0770833
52	0x3e636dd7	0.2220987
53	0xbd11ac18	-0.035564512
54	0x3e757492	0.2397025
55	0xbd91ae30	-0.07113302
56	0x3e017cbb	0.12645237
57	0x3e39f034	0.18158036
58	0xbee81e9e	-0.4533586
59	0xbd6c4c47	-0.05768993
60	0x3e19d764	0.15023571
61	0xbe1af72c	-0.15133351
62	0xbc5f6606	-0.013635164
63	0x3dcfc585	0.10145096
64	0x3dd99cdf	0.10625624
65	0x3cf9654e	0.030443814
66	0xbe6eaece	-0.2330887
67	0xbdd71763	-0.105025075
68	0x3e51425c	0.2043547
69	0x3e0cdb97	0.13755642
70	0x3de10680	0.10987568
71	0x3e5b13db	0.21394293
72	0x3e762e10	0.24041009
73	0x3e9f5569	0.3111985
74	0xbf6d8bed	-0.92791635
75	0x3e5d8b49	0.21635164
76	0x3e2d028a	0.168955
77	0x3e3ab9d8	0.18234956
78	0x3e0e5805	0.13900764
79	0x3e4a47f9	0.19754018
80	0xbd8f9c50	-0.07012236
81	0x3e0ca6bc	0.13735479
82	0xbf9c1171	-1.2192823
83	0x3e4b4b31	0.19852902
84	0xbcffa418	-0.031206176
85	0x3e04b1ad	0.12958403
86	0x3ddcd1e5	0.10782222
87	0xbc87b240	-0.016564488
88	0x3e182078	0.14856136
89	0x3e7207ae	0.23635742
90	0xbe2e47f0	-0.1701963
91	0xbd826211	-0.06366361
92	0xbe0ba962	-0.13638833
93	0x3dcfd825	0.10148648
94	0x3e1bf2d7	0.15229355
95	0xbd35d2d1	-0.044390503
96	0x3e0e50e0	0.13898039
97	0x3df5d2af	0.12003075
98	0xbef21c8a	-0.472874
99	0x3e37dfa5	0.17956407
100	0x3e7b7151	0.24554946
101	0xbccfbbde	-0.025358137
102	0xbcc3be54	-0.023894466
103	0xba917204	-0.0011096601
104	0x3da42db5	0.080165304
105	0x3e78ff6e	0.24316189
106	0xbf158b6c	-0.58415866
107	0x3da10cab	0.07863744
108	0x3e4d9f17	0.20080219
109	0xbc55f2e4	-0.013058398
110	0x3e00dfaf	0.12585329
111	0xbe00cd03	-0.12578206
112	0x3e4f1806	0.20224008
113	0xbaf54edc	-0.0018715519
114	0xbea5743d	-0.32315245
115	0x3dc12a2d	0.094318725
116	0x3e02f091	0.12787081
117	0xbddfb783	-0.10923674
118	0x3d182342	0.037143
119	0xbd3c58ba	-0.045983054
120	0xbc9b895c	-0.018986396
121	0x3e7c5a9e	0.24643943
122	0xbf595dd2	-0.84908783
123	0x3e95bccd	0.29245606
124	0x3dc73a41	0.09727908
125	0x3def1e19	0.116756625
126	0x3e175021	0.1477666
127	0xbd0dd1d5	-0.03462394
128	0xbbce4bed	-0.006295672
129	0xbd8c42de	-0.068486914
130	0xbeab1496	-0.33414143
131	0x3df8e4a6	0.12152986
132	0xbd02755d	-0.031850208
133	0x3e128c4a	0.14311329
134	0xbd815f87	-0.063170485
135	0x3e60bcdb	0.21947043
136	0x3daef1ae	0.085421905
137	0xbd380f19	-0.044936273
138	0xbfb209f5	-1.3909289
139	0xbca348ec	-0.019932233
140	0x3cb6f554	0.022333778
141	0x3e12ad9e	0.14324042
142	0xbddb3db2	-0.10705127
143	0xbc22207f	-0.009895443
144	0xbe16b0a3	-0.14715819
145	0xbe0c01ab	-0.13672511
146	0xbdb4f47b	-0.088356934
147	0xbd8d4a48	-0.06898934
148	0x3daee66e	0.08540045
149	0x3e188d46	0.14897642
150	0x3d8a7668	0.067608654
151	0xbdaa2722	-0.08308245
152	0xbd8e4c65	-0.06948165
153	0xbd00b277	-0.031420197
154	0xbd4f1039	-0.05055258
155	0xbc67b4b7	-0.014142207
156	0x3bd6265c	0.0065353345
157	0x3e2666cd	0.16250153
158	0xbd820ba8	-0.063498795
159	0xbdce35b9	-0.100688405
160	0x3e4aab67	0.19791947
161	0x3e479cdb	0.1949343
162	0xbf2256a3	-0.6341345
163	0x3d881507	0.06644636
164	0xbe045b65	-0.12925489
165	0x3dd01726	0.10160665
166	0xbdc70904	-0.097185165
167	0x3dd6af6c	0.10482678
168	0x3e336b6a	0.17521444
169	0x3d44a1a2	0.048005708
170	0xbdaa8efc	-0.08328053
171	0x3e3e322b	0.18573825
172	0xbd7b9899	-0.061424825
173	0xbdd72e81	-0.10506917
174	0x3e77bf32	0.24194029
175	0x3e2010f5	0.15631469
176	0x3d36cbb3	0.044627856
177	0xbdcc0ed4	-0.09963766
178	0xb7594a90	-1.2951568e-05
179	0x3d0425fa	0.03226278
180	0x3e3cf12c	0.18451375
181	0x3d142d68	0.036176115
182	0xbc6521ab	-0.013985078
183	0x3e788d0b	0.24272554
184	0xbe0fcc21	-0.14042713
185	0x3d76e753	0.0602792
186	0xbe84d174	-0.2594105
187	0xbda83a82	-0.082142845
188	0x3e3a9603	0.18221287
189	0x3e02438f	0.12721084
190	0xbd96a7d1	-0.07356227
191	0x3c4734e1	0.012158603
192	0x3e0b3bf9	0.13597097
193	0x3da8d4b1	0.08243693
194	0x3e1615bc	0.14656729
195	0x3e0676a8	0.13131201
196	0x3dd9569c	0.106122226
197	0x3d5c897e	0.05384206
198	0xbd104f15	-0.03523167
199	0x3e60172f	0.21883844
200	0xbe038ef6	-0.12847504
201	0x3da78a78	0.08180708
202	0x3fc99f37	1.5751714
203	0xbd31250a	-0.043248214
204	0x3e39aae3	0.18131594
205	0xbd610327	-0.054934647
206	0x3e30da7c	0.17270845
207	0xbe0feb3e	-0.14054582
208	0x3dc91def	0.098201625
209	0x3e435c53	0.19078188
210	0xbdca0423	-0.0986407
211	0xbe0f1493	-0.13972692
212	0x3e3267b7	0.17422377
213	0x3e3333bf	0.17500208
214	0x3c53f7b3	0.012937474
215	0x3e8550d7	0.26038238
216	0x3d383d1e	0.04498016
217	0xbd923121	-0.07138277
218	0xbed83401	-0.42227176
219	0xbdc1d4a1	-0.09464384
220	0xbd64c501	-0.05585194
221	0xbc3adb0d	-0.011404765
222	0xbe08733c	-0.13325208
223	0xbe512ed3	-0.20428018
224	0x3e68469a	0.22683182
225	0xbe0a475c	-0.13503784
226	0x3d9e05d0	0.077159524
227	0xbd8e55bb	-0.069499455
228	0x3dbaf705	0.091291465
229	0x3e63c9f0	0.22245002
230	0xbddca0bc	-0.10772845
231	0x3e356c88	0.17717183
232	0x3e45d0e8	0.19317973
233	0x3e1dfd76	0.15428719
234	0xbfa606d7	-1.2970837
235	0x3d608702	0.054816253
236	0xbd3f9d40	-0.046780825
237	0x3c999542	0.01874793
238	0xbd59342e	-0.053028278
239	0xbe16d34c	-0.14729041
240	0xbda1b04d	-0.07894955
241	0x3dc5d9e4	0.096607
242	0xbe956aae	-0.29182953
243	0x3e4430f5	0.191593
244	0xbe0ff426	-0.14057979
245	0x3bf68cd2	0.0075241113
246	0xbdeb952c	-0.11503062
247	0x3e5292ed	0.2056386
248	0xbcb986ba	-0.02264725
249	0x3de00369	0.109381504
250	0xbf2efdc1	-0.6835595
251	0xbd973327	-0.073828034
252	0xbda5eb06	-0.08101468
253	0x3dd19073	0.102326296
254	0x3e6c2658	0.23061502
255	0xbe24319d	-0.16034551

lstm.weight_hh_l0 f4 [96, 24]
0	0x3bb91e42	0.005649359
1	0x3e2d3557	0.16914879
2	0xbe57594d	-0.2103016
3	0x3da95ba5	0.08269433
4	0xbbcb3545	-0.0062014186
5	0x3e398a0e	0.1811907
6	0xbe120eb5	-0.14263423
7	0xbd5d6b5f	-0.054057475
8	0xbe318646	-0.17336378
9	0x3e1e7d3e	0.15477464
10	0x3e04a5de	0.12953898
11	0xbe482df1	-0.19548775
12	0x3e139f69	0.14416279
13	0x3df33041	0.11874438
14	0x3e409e5b	0.18810408
15	0xbd4fd5f8	-0.050741166
16	0xbe0acd10	-0.13554788
17	0x3cf6000c	0.03002932
18	0xbe3505f6	-0.17678055
19	0xbd69b175	-0.057054
20	0xbe63bb26	-0.2223936
21	0x3da6bb98	0.081412494
22	0xbe160d83	-0.14653592
23	0xbc020537	-0.007935814
24	0x3edf5518	0.4361961
25	0xbec1f1c9	-0.3787978
26	0xbef63227	-0.48085138
27	0xbe13494c	-0.1438343
28	0x3e84931a	0.2589348
29	0x3db5f666	0.088848874
30	0x3eaa9c07	0.33322164
31	0x3e9ae7af	0.30254886
32	0xbeffd58e	-0.49967617
33	0xbed5be1d	-0.41746607
34	0x3ec8743b	0.39151177
35	0xbeac4d0c	-0.33652532
36	0xbe4c5a85	-0.19956405
37	0xbebb8e0d	-0.36631814
38	0x3eb30dc7	0.3497145
39	0x3e95a2ce	0.29225773
40	0x3ed7c83b	0.4214495
41	0x3efa3355	0.48867288
42	0xbe841082	-0.25793844
43	0x3ea1766d	0.31535664
44	0xbedc698f	-0.43049285
45	0x3e4c3608	0.19942486
46	0x3f0349b2	0.51284325
47	0xbf1dce25	-0.61642677
48	0xbdf03931	-0.117296584
49	0xbe21d7ed	-0.15805025
50	0x3d2922af	0.041292842
51	0xbe1ad48c	-0.15120143
52	0x3c87f061	0.016594114
53	0xbd895d45	-0.06707243
54	0xbd9467e8	-0.07246381
55	0x3dc1d9a3	0.09465339
56	0xbe8433f8	-0.258209
57	0x3e3a6a6e	0.18204662
58	0xbc8714f7	-0.016489489
59	0x3d4480ad	0.047974277
60	0xbe249726	-0.16073284
61	0xbdc96802	-0.09834291
62	0x3e1568c1	0.14590742
63	0xbdfdcfaa	-0.123931244
64	0x3e376403	0.17909245
65	0x3d7f10d9	0.062271927
66	0xbd8be2c0	-0.068303585
67	0xbca02a77	-0.019551499
68	0xbe4d86b4	-0.20070916
69	0xbc2c6b7c	-0.010523673
70	0x3d4a194a	0.049340524
71	0xbb829b91	-0.00398583
72	0x3e3bec3c	0.18351835
73	0xbe157d83	-0.1459866
74	0xbeddc520	-0.43314457
75	0xbdd5f33a	-0.104467824
76	0x3ea784a9	0.327184
77	0x3d2e42fa	0.042544343
78	0x3e2fa4d9	0.17152728
79	0x3eaa087c	0.33209598
80	0xbef3657e	-0.4753837
81	0xbe888098	-0.2666061
82	0x3e1d54a1	0.15364315
83	0xbf04f753	-0.51939887
84	0xbe01397d	-0.12619586
85	0xbf188ed7	-0.59592956
86	0x3eaf7d68	0.34275365
87	0x3ebbd58f	0.3668637
88	0x3f0c8d69	0.54903275
89	0x3ecbc91f	0.3980188
90	0xbea52bf4	-0.32260096
91	0x3f08a629	0.5337854
92	0xbef3282c	-0.47491586
93	0x3e0a737f	0.13520621
94	0x3e6e5fcd	0.23278733
95	0xbefa9b0e	-0.48946422
96	0x3d6c6d51	0.05772144
97	0xbe865602	-0.26237494
98	0x3d07d435	0.03316136
99	0xbdbb11da	-0.09134264
100	0x3e523fdb	0.20532171
101	0x3de050de	0.10952924
102	0x3d64b27d	0.055834282
103	0x3e5314f3	0.2061346
104	0xbe671ae1	-0.22568847
105	0xbd6343cd	-0.05548458
106	0xbe0c4bb9	-0.13700761
107	0xbe4e0045	-0.2011729
108	0x3cb9c810	0.022678405
109	0x3dee49eb	0.116351925
110	0x3e4e83a3	0.20167403
111	0xbd814d0e	-0.06313525
112	0xbc38579f	-0.011251359
113	0x3d2e752b	0.04259221
114	0x3c2be88f	0.010492458
115	0x3e194732	0.14968565
116	0x3db293cc	0.08719596
117	0x3e323565	0.17403181
118	0x3e25f783	0.162077
119	0xbc77e08e	-0.015129222
120	0x3da68e9b	0.081326686
121	0xbe8dd97c	-0.2770499
122	0x3d52f596	0.05150374
123	0x3ebd6d52	0.36997467
124	0xbdc6dc50	-0.0970999
125	0xbd463aeb	-0.048396032
126	0xbda54eee	-0.08071695
127	0xb9a93627	-0.00032274539
128	0xbe1489d6	-0.14505705
129	0x3ebd4397	0.3696563
130	0xbddd8ff0	-0.108184695
131	0xbd7078c8	-0.058708936
132	0xbe1bf7df	-0.15231274
133	0xbc767208	-0.015041836
134	0x3cc469ec	0.023976289
135	0xbda6bf63	-0.08141973
136	0x3e0da89b	0.13833849
137	0x3c97b9e7	0.018521262
138	0x3e0cbb28	0.1374327
139	0xbe2c164f	-0.16805385
140	0x3d0322ba	0.03201554
141	0x3c6cbfda	0.014450038
142	0x3d701f30	0.058623493
143	0xbe3e308a	-0.18573204
144	0x3e0367e6	0.12832603
145	0xbd31997e	-0.043359272
146	0xbe504d59	-0.20342006
147	0x3d481a34	0.048853114
148	0x3e68058b	0.22658364
149	0xbe0011b9	-0.1250676
150	0x3dbe4336	0.09290163
151	0x3e6be1a8	0.230353
152	0xbe0ae73a	-0.13564768
153	0x3e48c9c4	0.19608217
154	0xbe598ba5	-0.21244676
155	0xbdbb5d8c	-0.09148702
156	0xbdfe67d9	-0.12422151
157	0xbc9d85d6	-0.019228857
158	0x3e497fd5	0.1967767
159	0xbddfda41	-0.109303005
160	0x3d551365	0.05202045
161	0x3e0c265e	0.13686511
162	0xbe0001ce	-0.12500688
163	0x3e26e4bc	0.16298193
164	0x3d33b211	0.04387099
165	0x3b54b88f	0.0032458638
166	0x3d12a611	0.035802905
167	0x3d858b12	0.06520666
168	0x3da97d25	0.082758226
169	0xbe93cce1	-0.28867248
170	0xbca1707d	-0.019706959
171	0x3ddee3f8	0.10883325
172	0xbd28afbc	-0.04118322
173	0x3e1f1ff7	0.15539537
174	0x3db6ce1c	0.08926031
175	0xbc772453	-0.015084344
176	0xbd8ab193	-0.06772151
177	0x3e7e4600	0.2483139
178	0xbde4c837	-0.111710005
179	0xbe63e1a5	-0.22254045
180	0xbe3dba0b	-0.18528001
181	0xbd2bcc48	-0.041942865
182	0x3e75bed4	0.23998576
183	0x3e0c7b49	0.13718905
184	0x3dc56d4e	0.09639989
185	0xbbdead9a	-0.0067955973
186	0xbe5f7f78	-0.21825969
187	0x3dff361b	0.12461492
188	0x3e184a2c	0.14872044
189	0xbe08717d	-0.13324542
190	0x3b02fcab	0.0019987028
191	0xbd92dea4	-0.071713716
192	0xbd79c74c	-0.06098108
193	0xbdf8b6b0	-0.1214422
194	0xbe2967b5	-0.16543467
195	0x3e1e4eca	0.15459743
196	0x3e00afcb	0.1256706
197	0x3e1c9901	0.15292741
198	0xbd98c08c	-0.074586004
199	0xbcb2ef8e	-0.021842744
200	0x3ca51622	0.020152155
201	0x3e3ea460	0.18617392
202	0xbd9c01bd	-0.07617519
203	0xbd8ddb5b	-0.06926604
204	0xbe5975a4	-0.21236283
205	0xbc743531	-0.01490526
206	0x3e11e403	0.14247136
207	0xbe13f71e	-0.14449736
208	0x3bed3b6d	0.00723975
209	0x3e1f7c33	0.15574722
210	0xbdac1e9c	-0.08404276
211	0x3dd0b402	0.10190584
212	0xbe1a88b2	-0.15091208
213	0x3e4fd7f4	0.20297223
214	0x3e5adcf5	0.21373351
215	0xbe3525c1	-0.17690183
216	0x3eac5905	0.33661667
217	0xbea388f3	-0.3194042
218	0xbee82ed5	-0.4534823
219	0xbe46e57f	-0.19423483
220	0x3ef2fe8f	0.47459838
221	0x3eb8cf48	0.36095643
222	0x3df29774	0.11845294
223	0x3e5ba9ba	0.21451464
224	0xbef4db70	-0.47823668
225	0xbe582546	-0.21107969
226	0x3e68e06d	0.22741862
227	0xbe818412	-0.25296074
228	0xbe966013	-0.29370174
229	0xbea01e1f	-0.3127298
230	0x3f04e912	0.5191814
231	0x3edb2540	0.42801857
232	0x3ec896b2	0.3917747
233	0x3e807b3a	0.25094014
234	0xbef3d579	-0.47623804
235	0x3ecc4506	0.3989641
236	0xbe9086c4	-0.28227818
237	0x3e6d3f31	0.23168637
238	0x3e421dc6	0.1895667
239	0xbe961315	-0.29311433
240	0x3e257dad	0.16161223
241	0xbe21f55b	-0.15816252
242	0xbec8781e	-0.39154142
243	0x3bbe3b85	0.005805435
244	0x3e0093d7	0.12556396
245	0x3e3f8881	0.18704416
246	0x3e825522	0.25455576
247	0xbc62039c	-0.013794806
248	0xbdef0eb5	-0.11672727
249	0xbd2a4960	-0.041573882
250	0x3dcf235b	0.101141654
251	0x3c8c2817	0.01710896
252	0xbea8a37f	-0.32937238
253	0xbe5cc995	-0.21561272
254	0x3eb3c959	0.35114554
255	0xbc31ee2d	-0.010860008

lstm.bias_ih_l0 f4 [96]
0	0x3e6fc6c5	0.23415668
1	0x3eaccf37	0.33751842
2	0xbd0d12a3	-0.0344416
3	0xbd73c2b2	-0.059511848
4	0x3e035ebc	0.12829107
5	0xbd9891f6	-0.07449715
6	0xbd5a8701	-0.053351406
7	0x3d8e912e	0.069612846
8	0x3dd38bd7	0.10329407
9	0x3dd23c14	0.10265365
10	0x3e65e1f2	0.22449473
11	0x3e852f4f	0.26012656
12	0x3cab4fb8	0.020912036
13	0xbd7eb3ba	-0.06218312
14	0x3ddb0851	0.106949456
15	0x3e62db9d	0.22154088
16	0x3cfdd412	0.030984912
17	0x3e443ba1	0.19163372
18	0x3dc6ebf8	0.09712976
19	0xbdb4e75f	-0.08833193
20	0x3e392dc7	0.18083869
21	0xbd84a811	-0.064773686
22	0xbdba53a6	-0.09097986
23	0x3d1e8e1e	0.038709752
24	0x3c9a8df6	0.01886652
25	0x3c912de8	0.017722085
26	0x3d8bb9cd	0.06822548
27	0xbe0c19f0	-0.1368177
28	0x3e40d936	0.1883286
29	0xbd4bde7e	-0.049772732
30	0x3e3d68b3	0.18496971
31	0xbda7c2ca	-0.0819145
32	0x3e12e131	0.14343716
33	0xbd07811c	-0.033082113
34	0xbdf16dff	-0.11788558
35	0xbc2a47fd	-0.01039314
36	0x3d23b5dd	0.03996836
37	0x3e45e408	0.19325268
38	0xbcf217b8	-0.029552326
39	0xbcde418d	-0.027130866
40	0xbd4c3b33	-0.049861144
41	0x3e0a561b	0.13509409
42	0xbc10080b	-0.00879098
43	0x3e211791	0.15731646
44	0xbe0ae866	-0.13565215
45	0xbc3e8e11	-0.011630551
46	0xbdd4851a	-0.103769496
47	0xbccf1405	-0.0252781
48	0x3dd02618	0.10163516
49	0xbdaeec64	-0.08541182
50	0xbe60bfc3	-0.21948151
51	0xbd450050	-0.048096
52	0x3e6f27c2	0.2335501
53	0x3e200496	0.1562675
54	0xbd431ea8	-0.047636658
55	0x3e19e521	0.15028812
56	0x3d8f099d	0.069842555
57	0x3d29d073	0.04145856
58	0xbe1fb3eb	-0.15595977
59	0x3c62195a	0.01379999
60	0xbe379a2b	-0.17929904
61	0xbd88980d	-0.066696264
62	0x3e1d46ed	0.15359087
63	0xbd07cfa0	-0.03315699
64	0x3e603fb0	0.21899295
65	0x3d64304a	0.055710115
66	0xbe6b26bf	-0.22963999
67	0x3d15a254	0.03653176
68	0xbda0bb57	-0.07848232
69	0xbb5ca4a9	-0.003366748
70	0x3e1022da	0.14075795
71	0xbe460017	-0.19335972
72	0x3e01e0dc	0.12683433
73	0x3dedcf1b	0.11611768
74	0xbdcefbd5	-0.10106627
75	0x3e5748b3	0.21023826
76	0x3e141b85	0.14463623
77	0xbd3d9ae4	-0.046290293
78	0x3d8b9332	0.06815185
79	0x3e0d82a6	0.1381937
80	0x3decab2a	0.115560845
81	0x3e87eae5	0.26546398
82	0x3da711da	0.08157702
83	0x3e683b6c	0.22678918
84	0x3d881b69	0.06645853
85	0xbe061505	-0.13093956
86	0xbda7c9cd	-0.08192787
87	0x3e176d3d	0.14787765
88	0x3d52bc38	0.05144903
89	0x3dd17e3a	0.10229154
90	0xbdb48a5a	-0.08815451
91	0xbc111a40	-0.008856356
92	0xbd752ce5	-0.059857268
93	0x3c861098	0.016365334
94	0xbd9a7f25	-0.07543782
95	0x3db8a6bd	0.09016178

lstm.bias_hh_l0 f4 [96]
0	0x3e40113b	0.18756573
1	0x3e55c06b	0.20874183
2	0xbd8cc3be	-0.06873272
3	0x3c7959b0	0.015219137
4	0x3e4a10c7	0.19732963
5	0x3b86388e	0.0040960973
6	0xbcafdda9	-0.021468
7	0x3e6b7b4e	0.22996256
8	0x3e743dcd	0.238517
9	0x3e4ff726	0.20309123
10	0x3e13f6f6	0.14449677
11	0x3e0e9fbb	0.1392812
12	0xbd8f7411	-0.0700456
13	0x3e5e2c15	0.21696503
14	0x3d5d6538	0.054051608
15	0x3e8a3bbe	0.26998705
16	0xbdf31adb	-0.11870357
17	0x3e0b9366	0.13630447
18	0x3e37cb6f	0.17948698
19	0x3d7ca0b9	0.061676715
20	0x3d264a10	0.040597975
21	0x3c816506	0.015795242
22	0x3d033779	0.032035325
23	0x3cc37f83	0.023864513
24	0x3e38267b	0.17983429
25	0x3c8d5a43	0.017254954
26	0x3d4b6342	0.049655207
27	0xbd920b62	-0.07131077
28	0x3e3c9e35	0.18419726
29	0xbdddbc10	-0.10826886
30	0x3d76aa35	0.060220916
31	0xbdf3fef1	-0.119138606
32	0xbd5e6532	-0.054295726
33	0xbd47f90d	-0.048821498
34	0xbe64031c	-0.22266811
35	0x3e02c29c	0.1276955
36	0x3de04e60	0.10952449
37	0x3e64c7cc	0.22341841
38	0x3d247bfd	0.040157307
39	0x3d82c888	0.063859046
40	0xbe0d79ab	-0.13815944
41	0xbdf9dc96	-0.122002766
42	0xbe08dc6a	-0.13365331
43	0x3e336bce	0.17521593
44	0x3cc87d49	0.024473803
45	0x3e02ae12	0.12761715
46	0x3d9599ab	0.073047005
47	0x3d3f9a3f	0.04677796
48	0x3e231999	0.15927733
49	0xbd283f72	-0.04107613
50	0xbdead8e9	-0.114671536
51	0x3ddbd5e8	0.10734159
52	0xbd2645c1	-0.040593866
53	0x3dad729b	0.08469125
54	0x3deac0e8	0.11462575
55	0x3de16596	0.11005704
56	0xbe0c0200	-0.13672638
57	0x3ce4f0a5	0.02794678
58	0x3d086476	0.033298932
59	0xbe214432	-0.1574867
60	0xbe4e5d19	-0.20152701
61	0x3d723254	0.059130028
62	0x3deddbec	0.116142124
63	0x3c6fb459	0.014630401
64	0x3e427024	0.18988091
65	0xbdec9f42	-0.115538135
66	0xbe5835ed	-0.21114321
67	0x3e1a6899	0.15078963
68	0x3d5c2784	0.053748623
69	0x3e0cd1f0	0.1375196
70	0x3cec86ca	0.028872866
71	0xbd26942b	-0.040668648
72	0x3e3fbc25	0.18724115
73	0x3d940e8d	0.07229338
74	0x3e1b970e	0.15194342
75	0x3d2f2791	0.042762343
76	0xbcf16bf3	-0.02947042
77	0xbd1ab114	-0.03776653
78	0x3d13cd9e	0.036084764
79	0x3d55fc74	0.05224271
80	0xbda5e5d7	-0.08100479
81	0x3db83ad2	0.08995594
82	0x3ea4a52a	0.3215726
83	0xbbb8dac4	-0.0056413133
84	0xbd3f1125	-0.04664721
85	0xbd946c2b	-0.07247194
86	0x3e2d43b0	0.16920352
87	0xbd58ab6c	-0.052897856
88	0xbe20c110	-0.15698647
89	0x3e2570d9	0.16156329
90	0x3e675151	0.22589613
91	0x3c98bcc0	0.01864469
92	0xbdd74ead	-0.10513053
93	0x3d32339a	0.043506242
94	0x3da5dc61	0.080986746
95	0xbe347c38	-0.1762551

fc.weight f4 [1, 24]
0	0xbda70112	-0.08154501
1	0xbe8dabbe	-0.2767009
2	0x3e8a3352	0.2699228
3	0x3edf5143	0.43616685
4	0xbe65a79c	-0.22427219
5	0xbd968c79	-0.07351012
6	0xbe349e11	-0.17638423
7	0xbdcd0916	-0.10011499
8	0x3e51776f	0.20455717
9	0x3eff2d8a	0.4983943
10	0xbe7acfd9	-0.2449335
11	0x3dc1cd6d	0.0946301
12	0x3dcd05cb	0.100108705
13	0x3e1a73c6	0.15083227
14	0xbd871650	-0.06596053
15	0xbe452552	-0.19252518
16	0xbda38481	-0.079842575
17	0xbe6c2805	-0.23062141
18	0x3ddccf37	0.107817106
19	0xbe3f6983	-0.18692593
20	0x3e1063d9	0.14100589
21	0xbdb19e4a	-0.08672769
22	0xbd2dfc3e	-0.042476885
23	0x3e3f3387	0.18672
