best_models/path_selection_lstm.pth (torch, 25701 bytes, 6 tensors)

lstm.weight_ih_l0 f4 [128, 8]
0	0x3ee34d76	0.44395036
1	0x3da370ff	0.07980537
2	0x3e9f8c88	0.31161904
3	0x3ebe37aa	0.37151843
4	0x3e6558fd	0.22397228
5	0x3dd1aee0	0.10238433
6	0x3ed8c994	0.42341292
7	0x3e77a462	0.24183801
8	0xbdcf5185	-0.101229705
9	0xbd475ab7	-0.048670497
10	0x3d38c7a1	0.045112256
11	0xbd935916	-0.07194726
12	0x3dabd39c	0.08389971
13	0xbda004d5	-0.07813422
14	0x3d323e78	0.043516606
15	0x3d1401c7	0.036134508
16	0x3d86b3d7	0.065772705
17	0x3e4de949	0.20108522
18	0x3c066302	0.008202316
19	0xbd6b05bc	-0.057378516
20	0x3e181849	0.14853014
21	0xbc1a2667	-0.00940857
22	0xbd6179fc	-0.055047974
23	0x3c306811	0.010766999
24	0x3e39b054	0.1813367
25	0xbd9a7bb0	-0.07543123
26	0xbe101094	-0.14068824
27	0xbdec0c1b	-0.115257464
28	0xbd471b8d	-0.04861026
29	0xbd8e0614	-0.06934753
30	0x3e1b0a51	0.15140654
31	0xbdb8e565	-0.090281285
32	0x3eb812cf	0.3595185
33	0x3ed1449c	0.40872657
34	0x3e969cbd	0.29416457
35	0xbe186bd8	-0.14884889
36	0x3ec41a21	0.38301185
37	0x3ec51076	0.3848912
38	0x3ec0a97e	0.37629312
39	0x3e959bb7	0.29220363
40	0xbd87a832	-0.066238776
41	0x3d64f736	0.05589982
42	0x3c3bfe4c	0.011474203
43	0x3da74a02	0.08168413
44	0x3dcea678	0.10090345
45	0x3df65e57	0.12029713
46	0xbcee959b	-0.029124072
47	0x3e5a1961	0.21298744
48	0x3e08346b	0.13301246
49	0x3e4db140	0.20087147
50	0x3e5ebe2b	0.21752231
51	0x3e0ea5cc	0.13930434
52	0x3d0da8ff	0.034584995
53	0xbcc65ffa	-0.024215687
54	0x3e187454	0.14888126
55	0x3d69a49a	0.057041742
56	0x3dbe03dc	0.0927808
57	0x3e707274	0.2348116
58	0x3cacf23f	0.021111606
59	0xbdc1d628	-0.09464675
60	0x3dea7eac	0.11449942
61	0x3e08ce3c	0.13359922
62	0x3c85ed50	0.016348511
63	0xbdc9438c	-0.09827337
64	0x3e1cf936	0.15329441
65	0x3cf44a66	0.029820632
66	0xbcd96953	-0.02653948
67	0x3dfc3101	0.12314034
68	0xbdb08cfb	-0.0862064
69	0x3d95557c	0.072916955
70	0xbdae514b	-0.08511599
71	0xbdde9f8f	-0.10870277
72	0x3de07a04	0.10960773
73	0xbcc75501	-0.024332525
74	0x3e17a373	0.14808445
75	0x3da33489	0.07969005
76	0x3d9dbda1	0.077021845
77	0x3e45abb4	0.19303781
78	0x3d972888	0.073807776
79	0x3db68ff2	0.08914174
80	0x3d8667e1	0.06562782
81	0x3e50afe1	0.20379592
82	0x3cd26020	0.025680602
83	0x3da75f72	0.081725016
84	0x3e25a66b	0.16176765
85	0x3cb15a73	0.021649575
86	0xbdf5d010	-0.120025754
87	0x3d8b3e55	0.06798998
88	0x3e13488f	0.14383148
89	0x3e4c3bac	0.19944638
90	0x3e2951f2	0.16535166
91	0x3ed756ff	0.4205856
92	0x3e5465c5	0.20741947
93	0x3ecd0764	0.400447
94	0x3ea43262	0.3206969
95	0x3e8dd66f	0.27702662
96	0xbc3c62f2	-0.0114982
97	0x3e52abb4	0.20573312
98	0xbdbfb089	-0.09359843
99	0xbe1b92bf	-0.15192698
100	0x3c652a84	0.013987187
101	0x3e2485e7	0.16066705
102	0xbd01cf58	-0.03169188
103	0x3d11fa61	0.03563917
104	0x3e4079d7	0.18796478
105	0x3eba904c	0.36438215
106	0x3e5280ed	0.20556994
107	0x3e5ad321	0.21369602
108	0x3ed17d9c	0.40916145
109	0x3ea55d21	0.32297614
110	0x3ea379b5	0.31928793
111	0x3eb105a4	0.34574616
112	0x3da94496	0.08265035
113	0xbccfdf2e	-0.025374975
114	0xbe56320b	-0.20917527
115	0x3e6c34cb	0.23067014
116	0xbd239c04	-0.03994371
117	0x3e83e263	0.25758657
118	0xbd920b8a	-0.07131107
119	0x3da6776e	0.08128248
120	0x3e485417	0.19563328
121	0x3d8155c9	0.0631519
122	0xbdff0309	-0.12451751
123	0x3e69ead1	0.22843482
124	0x3cfcaf05	0.030845175
125	0x3e03cf51	0.12872054
126	0xbe10d645	-0.14144237
127	0xbdf771c0	-0.12082243
128	0xbd89053b	-0.06690451
129	0x3dba249e	0.090890154
130	0x3e327d91	0.17430712
131	0x3dbe7ac7	0.09300762
132	0x3e62cccb	0.22148435
133	0x3e66a073	0.22522144
134	0x3da35d4c	0.07976779
135	0xbddcb623	-0.10776927
136	0x3e08c768	0.13357317
137	0x3ddfa243	0.10919621
138	0x3e693cd4	0.2277711
139	0x3e298bb0	0.16557193
140	0xbd76f5ac	-0.060292885
141	0xbb2cc8cd	-0.0026364804
142	0x3e2d725f	0.1693816
143	0x3e13d6fb	0.14437477
144	0xbe0dd391	-0.13850237
145	0xbd73abdf	-0.05949008
146	0x3b82db04	0.003993394
147	0x3e1bc84e	0.15213129
148	0x3e1d3036	0.15350422
149	0x3dd603ea	0.10449965
150	0xbda16cbf	-0.0788207
151	0x3e2bec60	0.16789389
152	0x3e20c4a3	0.15700011
153	0xbdd67f60	-0.104735136
154	0x3d17435d	0.036929477
155	0xbd1d6228	-0.038423687
156	0xbd7417d3	-0.059593033
157	0x3b1de585	0.0024093103
158	0xbd31e728	-0.04343334
159	0x3c26bba8	0.010176577
160	0x3d9df5ac	0.07712874
161	0x3b7af7e2	0.0038294722
162	0x3e2d06e8	0.16897166
163	0x3e400ce1	0.18754913
164	0x3ca327ca	0.019916434
165	0x3dadc568	0.08484918
166	0xbb89d1b7	-0.004205908
167	0xbc8014ca	-0.015634913
168	0x3df0d43b	0.1175923
169	0x3e3f0853	0.18655519
170	0x3e667461	0.22505333
171	0xbde5ad29	-0.11214668
172	0xbd36f150	-0.044663727
173	0x3e2cf109	0.16888823
174	0x3e207274	0.1566866
175	0xbd600a93	-0.054697584
176	0x3e39a15d	0.18127961
177	0x3cae5240	0.021279454
178	0xbdc08e41	-0.09402133
179	0x3daaf132	0.083467856
180	0x3e517612	0.20455196
181	0x3dd404d0	0.103524804
182	0xbdbdb8f3	-0.09263792
183	0xbb91e0d5	-0.004451851
184	0x3e566bb2	0.2093952
185	0x3d7caad8	0.061686367
186	0xbdac600c	-0.08416757
187	0x3dfbc4ea	0.12293418
188	0x3e05af0d	0.13055058
189	0x3df4a53b	0.11945578
190	0x3d972908	0.07380873
191	0x3e504cb2	0.20341757
192	0x3da42098	0.08014029
193	0x3e222380	0.15833855
194	0xbc8ef749	-0.0174519
195	0xbb29c550	-0.002590496
196	0x3e17a39d	0.14808507
197	0xbd8375ed	-0.06418977
198	0xbdd0a6eb	-0.10188087
199	0x3d6388d5	0.055550415
200	0x3d0e62ef	0.03476232
201	0x3bbb7c39	0.0057215956
202	0x3b99475a	0.004677695
203	0xbe18fde0	-0.14940596
204	0x3e44bd02	0.19212726
205	0xbc7ed565	-0.015553807
206	0x3e07531d	0.13215299
207	0xbdbf3490	-0.093361974
208	0x3de76eb7	0.11300414
209	0xbd2eaf7b	-0.04264782
210	0x3e3ea015	0.18615754
211	0xbcb8fef7	-0.022582514
212	0x3d4d58bc	0.05013345
213	0x3d92db62	0.0717075
214	0xbda6d52b	-0.08146127
215	0x3e4412d0	0.19147801
216	0x3eb75ac0	0.35811424
217	0x3eec5d4c	0.4616493
218	0x3e46e43c	0.19423002
219	0xbdaa83a5	-0.083258905
220	0x3e5fa6d2	0.2184098
221	0x3ea1360c	0.31486547
222	0x3e91e450	0.284945
223	0x3dc5eead	0.096646644
224	0x3dcd3027	0.1001895
225	0x3de24707	0.11048704
226	0x3e39b455	0.18135197
227	0xbde2bd3c	-0.1107125
228	0xbc9dd5b7	-0.019266946
229	0xbd451491	-0.048115317
230	0x3e1789a5	0.14798601
231	0xbdad0d26	-0.084497735
232	0x3e23dc35	0.16001971
233	0x3dd8fb68	0.10594827
234	0x3d1dec03	0.038555156
235	0x3dcb3958	0.09923047
236	0x3e0a1223	0.13483481
237	0x3e2dde3c	0.16979307
238	0xbc23450f	-0.009965195
239	0x3e3eba0c	0.18625659
240	0x3e59bd16	0.21263537
241	0xbd05ce0e	-0.032667212
242	0xbd06434c	-0.032779023
243	0x3dd9ce49	0.10635049
244	0xbd989c6a	-0.074517086
245	0xbd5700d3	-0.05249102
246	0xbd5c8a02	-0.053842552
247	0xbcd098cc	-0.025463484
248	0x3d12fa90	0.035883486
249	0x3da4609a	0.08026238
250	0xbdd12d72	-0.10213746
251	0x3d9598ee	0.0730456
252	0xbd741c35	-0.059597213
253	0x3e6b4735	0.22976382
254	0x3ddb7103	0.10714915
255	0x3d2271c2	0.03965927

lstm.weight_hh_l0 f4 [128, 32]
0	0x3d769990	0.060205042
1	0x3ec94e61	0.3931761
2	0x3d72213f	0.059113737
3	0x3e4321bb	0.19055836
4	0x3d547c2a	0.051876225
5	0xbe73b722	-0.23800328
6	0x3dfb3079	0.12265105
7	0xbe1fd039	-0.15606774
8	0xbee5477c	-0.447811
9	0xbe91070b	-0.28325686
10	0xbdb84b16	-0.089986965
11	0x3e0b4205	0.13599403
12	0x3e68aad0	0.2272141
13	0xbddc2262	-0.107487455
14	0xbe14aeee	-0.14519855
15	0xbe6020f8	-0.21887577
16	0x3eb490a5	0.35266605
17	0x3eb4f8f8	0.35346198
18	0x3e42522a	0.18976656
19	0xbe47fd17	-0.1953014
20	0x3e93bf7d	0.2885703
21	0xbde938b1	-0.11387766
22	0x3e0203df	0.12696789
23	0xbebb0d01	-0.3653336
24	0xbe350e3a	-0.17681208
25	0x3ea0e593	0.3142515
26	0x3dd8ac97	0.10579794
27	0x3e347f6a	0.1762673
28	0x3daf81c8	0.08569676
29	0x3e905f08	0.28197503
30	0xbe873c18	-0.26413035
31	0x3ea77645	0.3270742
32	0x3da17777	0.07884114
33	0xbdbee412	-0.09320845
34	0xbdeb294e	-0.114824876
35	0x3dc91c4b	0.098198496
36	0x3e2157bc	0.15756124
37	0x3de3b4e8	0.111184895
38	0xbd440034	-0.047851756
39	0xbe2950b6	-0.16534695
40	0x3d7b02ce	0.06128197
41	0xbd1c4982	-0.03815604
42	0xbe3463f7	-0.17616259
43	0x3e080d10	0.13286233
44	0xbdecaa79	-0.115559526
45	0xbdc4a77c	-0.096022576
46	0x3d6f8f1e	0.058486097
47	0xbd3d0377	-0.046145882
48	0x3de77899	0.11302299
49	0xbd34a6f2	-0.044104524
50	0x3e4a3223	0.19745688
51	0x3d03c6d1	0.032172028
52	0xbd90357f	-0.070414536
53	0xbbff1cd1	-0.0077854176
54	0x3e353877	0.17697321
55	0xbe16a514	-0.1471141
56	0xbe4cdac8	-0.20005333
57	0x3d93b614	0.07212463
58	0x3b006b3d	0.001959517
59	0x3b7bd3c1	0.0038425776
60	0xbc450b03	-0.012026551
61	0x3d6e1338	0.058123797
62	0x3d576104	0.052582756
63	0x3e41d36a	0.18928304
64	0x3e5b300e	0.2140505
65	0x3e3a386a	0.18185583
66	0x3d80368d	0.06260405
67	0x3e5702b5	0.20997126
68	0x3e23c09a	0.1599144
69	0x3d820a74	0.0634965
70	0x3d72f34f	0.05931407
71	0xbc946978	-0.018116698
72	0xbe8d6009	-0.27612332
73	0xbdbcf2e0	-0.09226012
74	0x3d5106a4	0.051031724
75	0x3d495d9e	0.049161546
76	0x3e6c8f26	0.23101482
77	0x3ddaefa3	0.10690238
78	0xbe413227	-0.18866788
79	0xbd84dec0	-0.06487799
80	0x3dbe880e	0.09303294
81	0xbd88bc23	-0.06676509
82	0x3e3a6391	0.18202044
83	0xbe4628db	-0.19351523
84	0x3d2edaf1	0.042689268
85	0x3c181822	0.009283097
86	0xbda463cc	-0.08026847
87	0xbe46b839	-0.19406213
88	0xbe226f49	-0.15862764
89	0x3d845894	0.064622074
90	0x3d6a6a9b	0.057230573
91	0x3dbb21c6	0.09137301
92	0xba91157b	-0.0011069024
93	0xbd01ea09	-0.031717334
94	0x3d1e558c	0.038655803
95	0x3d8ad137	0.06778186
96	0x3dcffba2	0.10155417
97	0xbd24873f	-0.040168043
98	0x3e11a1f2	0.14221933
99	0x3e43d7c4	0.19125277
100	0xbd7d2372	-0.06180138
101	0xbe3c8f0f	-0.18413948
102	0x3d9667d7	0.07344025
103	0xbc1acb35	-0.009447862
104	0xbda5276c	-0.0806416
105	0x3c1f84a5	0.009736215
106	0x3c922eaf	0.017844526
107	0xbdb658fb	-0.089036904
108	0x3e0e1e28	0.13878691
109	0x3d9ac60d	0.075573064
110	0x3dbc9389	0.092078276
111	0x3d41210b	0.047150653
112	0xbb3b73ac	-0.0028602881
113	0xbda581ea	-0.0808142
114	0x3e6b84f9	0.22999944
115	0xbe10a9d2	-0.14127281
116	0x3dd40334	0.103521734
117	0xbe0c76f4	-0.13717252
118	0x3e21c22d	0.15796728
119	0xbdfb7658	-0.12278432
120	0xbddd8279	-0.10815901
121	0x3e3db6c1	0.18526746
122	0x3db8ecbf	0.09029531
123	0xbdc4d332	-0.09610595
124	0xbcd85a75	-0.02641032
125	0x3e3ba1ac	0.18323392
126	0xbe0fb505	-0.14033897
127	0x3e2c0d39	0.16801919
128	0x3e0e5752	0.13900498
129	0x3e54b222	0.20771077
130	0x3ebfdf6f	0.37475154
131	0x3e8f02a8	0.27931714
132	0x3d33abde	0.043865077
133	0xbe3db4d3	-0.1852601
134	0x3eabcfbf	0.33556935
135	0xbe8e4288	-0.27785134
136	0xbeae2c33	-0.34018096
137	0xbee3a32f	-0.44460437
138	0xbea2df95	-0.31811205
139	0x3acb5612	0.0015513322
140	0x3ed458f5	0.4147412
141	0x3c4b8f4f	0.012424304
142	0xbe5c0a3c	-0.21488279
143	0xbea9fb6a	-0.33199626
144	0x3e70a080	0.23498726
145	0x3e5b0b40	0.2139101
146	0x3ec90136	0.39258736
147	0xbe34921c	-0.17633861
148	0x3ed2ec7b	0.41196045
149	0xbe28edf1	-0.16497017
150	0x3ec2b3a1	0.3802767
151	0xbe7d89f8	-0.24759662
152	0xbe5164e4	-0.20448643
153	0x3e4471cf	0.1918404
154	0x3edb3a79	0.4281805
155	0x3e12d20a	0.14337936
156	0x3eb28d63	0.34873495
157	0x3ee94a3f	0.45564458
158	0xbe730700	-0.23733139
159	0x3ea39e33	0.31956634
160	0x3e1c77b3	0.15280037
161	0x3debc5a5	0.11512307
162	0x3e1fdbc0	0.15611172
163	0xbd1d2aa5	-0.038370747
164	0xbdf4f01a	-0.11959858
165	0x3d6de27f	0.05807733
166	0x3e24c77a	0.1609172
167	0x3d11dae6	0.03560915
168	0xbcb615bf	-0.022227166
169	0xbd98af74	-0.0745534
170	0xbe0fb7db	-0.14034979
171	0x3db7d493	0.08976092
172	0xbcd39b56	-0.025830906
173	0xbc98d88c	-0.018657945
174	0xbe1961cc	-0.14978713
175	0xbd435e41	-0.04769731
176	0xbd27c336	-0.040957652
177	0x3c78a5de	0.015176265
178	0x3e08f159	0.13373317
179	0xbd0f8d47	-0.035046842
180	0xbd0f29f1	-0.034952108
181	0x3d97cc34	0.074119955
182	0x3dd560a5	0.10418824
183	0x3bcff23c	0.0063460153
184	0xbe5d9aa5	-0.21641023
185	0x3e1e0e50	0.15435147
186	0x3e1dfde1	0.15428878
187	0x3e6e9cdc	0.23302025
188	0x3e4c3217	0.19940983
189	0x3d9ba8e1	0.076005705
190	0x3d8bf253	0.06833329
191	0x3d8ce7bb	0.068801366
192	0xbce9eda3	-0.028555697
193	0x3c994dde	0.018713888
194	0x3de23b2c	0.110464424
195	0x3e59fd66	0.2128807
196	0xbdf73f3f	-0.1207261
197	0xbe3c91cc	-0.18414992
198	0x3e4c15dd	0.19930215
199	0xbd8265de	-0.06367086
200	0x3dbdf18a	0.092745855
201	0xbd7c3fc3	-0.061584245
202	0x3db09e59	0.086239524
203	0x3e223250	0.15839505
204	0x3d75552f	0.05989569
205	0xbe0aa9e7	-0.13541375
206	0xbdb0e5b3	-0.08637562
207	0xbdb5b1b4	-0.08871785
208	0x3d8083f8	0.06275171
209	0x3e0ce167	0.13757859
210	0x3e4c5edf	0.19958065
211	0xbd9c9130	-0.0764488
212	0x3de7c9ef	0.11317813
213	0xbdd609a2	-0.10451056
214	0xbdb793da	-0.08963747
215	0x3d409509	0.04701713
216	0xbd05a8af	-0.032631572
217	0x3da9b3eb	0.0828627
218	0x3c7ed0b5	0.015552689
219	0x3e175828	0.14779723
220	0x3d9f1e87	0.077694945
221	0x3dae9f57	0.085264854
222	0xbe697ef1	-0.2280233
223	0x3e653f1c	0.22387356
224	0xbd18840a	-0.037235297
225	0x3dad6ae3	0.08467653
226	0x3c93eb3b	0.018056503
227	0x3e482c29	0.19548096
228	0xbe315f56	-0.17321524
229	0x3d3e96dc	0.04653059
230	0x3e386da6	0.18010578
231	0x3d9010b9	0.070344396
232	0xbe2761ec	-0.16345948
233	0xbd981362	-0.07425572
234	0xbdb9b48c	-0.0906764
235	0x3e5b2c0c	0.21403521
236	0x3da1b7fb	0.078964196
237	0x3ce01f55	0.02735869
238	0x3d850bc3	0.06496384
239	0xbcf04d56	-0.029333752
240	0x3e0d2ba4	0.13786179
241	0x3e5e0412	0.2168124
242	0x3e0035a7	0.12520467
243	0xbea0babb	-0.31392464
244	0x3d23f1ab	0.040025394
245	0xbd9a8b11	-0.07546056
246	0xbd815cde	-0.06316541
247	0xbd871c74	-0.06597224
248	0x3d3f53a5	0.04671063
249	0xbd74762a	-0.059683003
250	0xbdb4c0fe	-0.08825873
251	0x3d841fa4	0.064513475
252	0x3caebb19	0.02132945
253	0xbd89a472	-0.067208186
254	0xbdc1ba53	-0.09459367
255	0xbda35538	-0.079752386

lstm.bias_ih_l0 f4 [128]
0	0x3ede95f8	0.43473792
1	0x3de338da	0.11094828
2	0x3db4d8e1	0.08830429
3	0x3e429b93	0.1900466
4	0x3eac5c09	0.33663967
5	0x3d34bb70	0.044124067
6	0x3e482cb2	0.195483
7	0x3d6ab196	0.057298265
8	0xbdc265b8	-0.094920576
9	0x3e679dfc	0.2261886
10	0x3d4ad875	0.049522836
11	0x3ec51e9c	0.38499916
12	0xbde1670e	-0.11005984
13	0x3e9eaea0	0.30992603
14	0x3e4395c8	0.19100106
15	0xbd59fadb	-0.05321775
16	0x3e172b36	0.14762577
17	0x3db04bda	0.086082175
18	0xbde57627	-0.112041764
19	0x3e3acf82	0.1824322
20	0x3e5b87a2	0.21438459
21	0xbd26bf62	-0.04070986
22	0x3e080cca	0.13286129
23	0xbdc7bacf	-0.09752428
24	0x3e2f1b4a	0.17100254
25	0x3df99b9f	0.121878855
26	0x3e0f830c	0.14014834
27	0x3ee400e5	0.44531932
28	0xbdc7b4d0	-0.09751284
29	0x3cd2cc58	0.025732204
30	0xbd8e04b4	-0.06934491
31	0x3e62bd80	0.22142601
32	0xbc5db468	-0.013531782
33	0xbdd6b134	-0.104830176
34	0xbdcf9b44	-0.101370364
35	0x3df7464f	0.12073957
36	0x3da94170	0.08264434
37	0x3d854ab2	0.065083876
38	0xbd302df6	-0.04301258
39	0x3de12d8d	0.10995016
40	0x3df9aa6c	0.121907085
41	0x3d8893be	0.066688046
42	0x3e72ea2f	0.23722146
43	0xbc3bf104	-0.011471037
44	0x3de0d902	0.10978891
45	0x3cea0036	0.028564554
46	0x3e2b6f5d	0.167417
47	0xbd28548d	-0.04109626
48	0x3e2f9945	0.17148311
49	0xbd4c9aa1	-0.049952153
50	0xbc83a529	-0.016069965
51	0x3d33e834	0.043922618
52	0xbcf86e80	-0.030326128
53	0x3e175ec8	0.1478225
54	0xbd9705ab	-0.07374128
55	0x3d9b238a	0.07575138
56	0x3e337158	0.17523706
57	0x3e20ec54	0.15715152
58	0xbdd01dfa	-0.101619676
59	0x3d824ce9	0.06362326
60	0xbd8f9fe6	-0.0701292
61	0x3e2a0e03	0.16606908
62	0x3e0702ac	0.13184613
63	0x3df89b76	0.12139027
64	0x3df3adec	0.11898407
65	0x3e45fe35	0.19335254
66	0x3da26c01	0.07930756
67	0x3e13835c	0.14405578
68	0xbcc3bbfc	-0.023893349
69	0xbe078a0a	-0.13236251
70	0x3e2d354e	0.16914865
71	0xbca4aae5	-0.02010102
72	0xbd0722c4	-0.03299214
73	0xbda45e82	-0.080258384
74	0x3db422dc	0.087957114
75	0x3a9e4886	0.0012076057
76	0x3e086bb3	0.13322334
77	0x3d8a85d4	0.06763807
78	0x3da9afc3	0.08285477
79	0xbdadc14a	-0.084841326
80	0x3cb33c1a	0.021879245
81	0x3da4380a	0.08018501
82	0x3dc87779	0.097884126
83	0xbd6e598f	-0.05819088
84	0x3e52599b	0.20541994
85	0x3b9a64f3	0.004711741
86	0xbcd2f01b	-0.025749257
87	0x3dc0c196	0.094119236
88	0x3c4d4cb2	0.012530493
89	0x3cfc6a1d	0.030812318
90	0x3e5a80ac	0.21338147
91	0x3d37b500	0.04485035
92	0x3e29e199	0.16589965
93	0x3dfaa735	0.122389235
94	0xbe133bb8	-0.1437825
95	0x3daf569c	0.08561441
96	0x3e708dcb	0.2349159
97	0x3c30e5e4	0.010796998
98	0x3d950ea5	0.07278184
99	0x3d0d36fc	0.034476265
100	0x3e7a625f	0.24451588
101	0x3da0a0b4	0.07843152
102	0x3cc9677d	0.02458548
103	0x3d9ae7f5	0.075637735
104	0x3e428c5f	0.1899886
105	0x3d988977	0.07448094
106	0x3d88f9d8	0.06688279
107	0x3df560d3	0.119813584
108	0x3de3412c	0.11096415
109	0x3eac2317	0.3362052
110	0xbdd39419	-0.10330982
111	0xbdf61063	-0.12014844
112	0x3e0e805e	0.13916156
113	0xbcf746d6	-0.030185144
114	0x3c4b024b	0.012390683
115	0x3e361fa2	0.17785504
116	0x3e8e0d6b	0.27744612
117	0xbddc3dd3	-0.107539795
118	0x3dd7f091	0.10543931
119	0xbc859b69	-0.016309457
120	0xbd5b607d	-0.053558815
121	0x3d831196	0.063998386
122	0x3e17983c	0.14804167
123	0x3e2f6a93	0.17130499
124	0xbe435c46	-0.19078168
125	0x3e49661f	0.19667862
126	0xbde3d6df	-0.11124968
127	0x3d307198	0.04307708

lstm.bias_hh_l0 f4 [128]
0	0x3ec8339f	0.39101884
1	0x3e2a8425	0.16651972
2	0x3b6d78ba	0.0036235289
3	0x3e33d82e	0.17562935
4	0x3e6aa9ed	0.22916384
5	0xbbb2b788	-0.0054540075
6	0x3e2ef956	0.17087302
7	0x3d97417e	0.073855385
8	0x3e54a8b4	0.2076748
9	0xbcc4ce98	-0.024024293
10	0x3e2e08f0	0.16995597
11	0x3e98425f	0.29738137
12	0x3db56de9	0.08858854
13	0x3e86b2d0	0.26308298
14	0x3bf1dc82	0.007381023
15	0x3e156338	0.1458863
16	0x3e391c0e	0.18077108
17	0x3e4fc168	0.20288622
18	0x3e3a253d	0.18178268
19	0xbd96df79	-0.07366843
20	0x3d3bc2a0	0.045839906
21	0x3db2bb4a	0.08727129
22	0x3d96c2b2	0.07361354
23	0xbda3bcfc	-0.0799503
24	0x3e26661c	0.16249889
25	0x3e65b486	0.22432145
26	0x3e2a8987	0.16654025
27	0x3e8a9d03	0.27072915
28	0xbcb36663	-0.021899408
29	0xbd807631	-0.06272543
30	0x3d4e6acb	0.050394814
31	0x3b6b6fd2	0.0035924804
32	0xbce4f6c1	-0.027949693
33	0xbd88eec8	-0.06686169
34	0x3db7c0f0	0.08972347
35	0xbdd8aab5	-0.10579435
36	0xbdd9378f	-0.106063
37	0xbdadbba9	-0.08483059
38	0x3df5d2a8	0.1200307
39	0x3e76c216	0.24097475
40	0x3e5ca0b7	0.21545683
41	0x3d1dfe63	0.03857268
42	0xbdae2f6b	-0.08505138
43	0x3d87c82e	0.06629978
44	0x3e3a9234	0.18219835
45	0xbc560695	-0.013063093
46	0x3d126587	0.035741355
47	0x3dad4c1c	0.08461782
48	0x3e5373ce	0.20649645
49	0xbd474c06	-0.048656486
50	0x3e28833b	0.1645631
51	0x3e42c053	0.19018678
52	0xbdbb5aba	-0.09148164
53	0x3cee287d	0.02907204
54	0x3e29aded	0.16570254
55	0x3cf4d205	0.029885301
56	0x3dc1a71c	0.09455702
57	0xbddf4755	-0.109022774
58	0x3e30dd92	0.17272022
59	0xbde3bb40	-0.111196995
60	0xbd9bbbc6	-0.07604174
61	0x3dd6554e	0.10465489
62	0x3e1963ac	0.14979428
63	0x3e3de519	0.18544425
64	0xbdf6a1ab	-0.120425545
65	0x3bd5aefe	0.006521105
66	0x3d8c7285	0.0685778
67	0x3d8739b4	0.06602803
68	0x3d38bb22	0.04510034
69	0xbc0fcae9	-0.008776405
70	0x3dec6371	0.115424044
71	0xbdeea23c	-0.116520375
72	0xbe20b510	-0.1569407
73	0x3c53007f	0.012878536
74	0xbe0e44b8	-0.13893402
75	0x3de4b318	0.11166972
76	0x3d047a57	0.032343235
77	0xbd81cb49	-0.06337602
78	0x3e00711b	0.12543146
79	0xbe0259f1	-0.12729622
80	0xbb794c29	-0.003803978
81	0x3d90b6a2	0.070660844
82	0xba86e307	-0.0010291048
83	0xbddcab19	-0.10774822
84	0x3d8da5b5	0.06916372
85	0xbe254b7c	-0.16142076
86	0xbd63f769	-0.05565587
87	0xbbb79427	-0.005602378
88	0x3c38e744	0.011285607
89	0xbd433005	-0.047653217
90	0x3b554f79	0.003254859
91	0x3e3b8126	0.18310985
92	0xbd905e1c	-0.070492
93	0x3d6a8221	0.057253007
94	0xbdaf678d	-0.085646726
95	0x3e2f5cea	0.17125288
96	0x3d72a852	0.059242554
97	0xbd8335df	-0.064067595
98	0xbddd8810	-0.108169675
99	0x3df5f2cb	0.120092
100	0x3ea7d999	0.327832
101	0xbe16e85c	-0.14737076
102	0x3e1682f8	0.14698398
103	0x3dfa8c3f	0.12233781
104	0xbca6cf8d	-0.02036264
105	0x3dca9828	0.09892303
106	0x3d9e70ea	0.077363804
107	0x3d4b7e0b	0.04968075
108	0xbdf8c488	-0.1214686
109	0x3e44369b	0.19161455
110	0xbdbee001	-0.09320069
111	0x3c977b2c	0.01849135
112	0xbdf8297d	-0.12117288
113	0x3da8665a	0.08222647
114	0x3de258c8	0.1105209
115	0x3d18d3a0	0.037311196
116	0x3dbad220	0.091221094
117	0xbd828e13	-0.06374755
118	0x3db8ef80	0.09030056
119	0x3d5a6261	0.053316478
120	0x3c544cd6	0.012957772
121	0xbdaff2c8	-0.08591229
122	0xbda02c30	-0.07820928
123	0x3e99b752	0.30022675
124	0x3d9bcf13	0.07607856
125	0xbcae9d09	-0.021315115
126	0xbe0049cd	-0.12528153
127	0xbe0e56b1	-0.13900258

fc.weight f4 [8, 32]
0	0xbd95394f	-0.07286321
1	0xbe28a2ef	-0.16468404
2	0x3d34f581	0.044179443
3	0xbecb9ae6	-0.39766616
4	0x3f23dd66	0.640097
5	0x3e29412d	0.16528769
6	0xbe795a8a	-0.24350944
7	0x3e829b2d	0.25509015
8	0x3ec0f239	0.376848
9	0x3e0c3bc4	0.13694674
10	0x3e2ecbe5	0.17069967
11	0xbe601463	-0.21882777
12	0xbdc9422f	-0.09827077
13	0x3eb5860e	0.35453838
14	0xbba279da	-0.0049583735
15	0x3e8c49e9	0.2740014
16	0xbe91c2db	-0.28468975
17	0xbd91bd40	-0.07116175
18	0xbe8f130c	-0.2794422
19	0x3eaae2c1	0.33376125
20	0xbe723f82	-0.23657039
21	0xbda6e457	-0.08149021
22	0xbe3b731d	-0.18305631
23	0x3e8ae872	0.27130467
24	0x3e07aa22	0.13248494
25	0xbdbd9339	-0.09256596
26	0xbe058af7	-0.13041292
27	0x3e1a1353	0.15046434
28	0xbe7b1ad1	-0.24521948
29	0xbe1779ee	-0.14792606
30	0x3d4b5a0a	0.049646415
31	0xbe189a53	-0.1490262
32	0xbf226f79	-0.63451344
33	0x3e421838	0.18954551
34	0x3e89d624	0.2692119
35	0x3e3061ff	0.17224883
36	0x3fb01546	1.3756492
37	0xbc9767af	-0.018482057
38	0x3e84b101	0.25916293
39	0xbe510270	-0.20411086
40	0xbe95ac75	-0.29233137
41	0xbe5af2d9	-0.21381702
42	0xbe850979	-0.2598379
43	0xbefd232f	-0.49440905
44	0x3eba5eb4	0.36400378
45	0x3f123e0c	0.57125926
46	0x3de166d2	0.110059395
47	0x3e235b5a	0.15952817
48	0x3c00ffe7	0.007873512
49	0x3dc9b98b	0.09849843
50	0x3dea8a5e	0.11452173
51	0xbed9fc7c	-0.42575443
52	0x3e5c8229	0.21534027
53	0xbec12b6b	-0.37728438
54	0x3e8da2bc	0.2766322
55	0xbe2555e9	-0.16146053
56	0xbe6b3813	-0.2297061
57	0x3ea2cb82	0.3179589
58	0xbcad6229	-0.02116497
59	0x3f64b8bb	0.89344376
60	0xbd675dd8	-0.05648598
61	0x3e8d1cf0	0.2756114
62	0xbd295ee5	-0.041350264
63	0xbc04adea	-0.008098105
64	0x3f5747f8	0.8409419
65	0x3e6d7656	0.23189673
66	0xbe4e26b1	-0.20131947
67	0xbd048dc7	-0.032361772
68	0xbfb7c52f	-1.4357051
69	0xbe592d1c	-0.21208614
70	0x3cb61913	0.022228753
71	0xbe8d8d08	-0.2764666
72	0x3c67bd02	0.014144184
73	0xbdf646b3	-0.120252036
74	0x3d9612dd	0.07327817
75	0x3f25edb0	0.6481581
76	0xbe5f5a19	-0.21811713
77	0xbf4d255e	-0.8013514
78	0xbd77d037	-0.060501304
79	0xbee51745	-0.44744316
80	0x3ec46c53	0.38363895
81	0x3e7477f9	0.23873891
82	0x3e387e4b	0.18016927
83	0x3e658ddf	0.22417401
84	0x3e3c3ee0	0.1838336
85	0x3dd8c81f	0.10585045
86	0x3e954f7b	0.291622
87	0xbe7b0515	-0.24513657
88	0x3d836512	0.06415762
89	0xbccb8ecb	-0.024848362
90	0x3e5a8aeb	0.21342055
91	0xbf65c0ed	-0.89747506
92	0x3e7477d7	0.2387384
93	0x3c8d88b9	0.017277109
94	0xbe81b9e9	-0.2533715
95	0x3ea7a6e0	0.32744503
96	0x3dfdb4f4	0.1238803
97	0xbc9e1db2	-0.01930127
98	0xbdae66c1	-0.085156925
99	0xbeb18a3f	-0.34675786
100	0xbf333fe2	-0.7001935
101	0x3e2b5743	0.16732506
102	0xbca6a64f	-0.020342974
103	0x3bf28f35	0.0074023255
104	0x3ee9cb80	0.4566307
105	0x3e8429b2	0.2581306
106	0xbcba1aba	-0.022717822
107	0x3c1f39c7	0.009718365
108	0xbeb26e9a	-0.34850007
109	0xbe16d3c8	-0.14729226
110	0x3e079e87	0.13244067
111	0x3e4215a8	0.18953574
112	0xbcd3c8ab	-0.025852522
113	0xbe2aa4fc	-0.16664499
114	0xbe524aeb	-0.20536391
115	0x3eb5a95f	0.35480782
116	0xbde6ef2d	-0.11276088
117	0x3e84a0be	0.25903887
118	0xbd4006dc	-0.04688154
119	0x3e8abc76	0.2709691
120	0x3da39b54	0.07988611
121	0xbdf0b1fc	-0.11752698
122	0xbe1f5095	-0.15558083
123	0xbce72c28	-0.028219298
124	0xbd03c638	-0.032171458
125	0xbe99ee8e	-0.30064815
126	0x3ea642b5	0.32472768
127	0xbb307738	-0.0026926529
128	0xbe5b2a21	-0.2140279
129	0xbe392e2c	-0.1808402
130	0xbe49f0ea	-0.19720808
131	0xbe90cb16	-0.28279942
132	0xbe57800c	-0.2104494
133	0x3e5e8a52	0.21732453
134	0xbe85f4fe	-0.26163477
135	0x3e179c8a	0.14805809
136	0x3e9fed3a	0.31235677
137	0x3e4a89f8	0.19779193
138	0x3ea0befb	0.31395707
139	0xbcd28acc	-0.02570095
140	0xbe684d58	-0.22685754
141	0x3e4389b7	0.19095503
142	0x3e588931	0.21146084
143	0x3e6fe2af	0.23426317
144	0xbe5a5b32	-0.21323851
145	0xbd894eda	-0.06704493
146	0xbe3f7769	-0.18697895
147	0x3f1428ce	0.57874763
148	0xbe1930aa	-0.1495997
149	0x3ecc6ec5	0.3992826
150	0xbe26528c	-0.16242427
151	0x3ecdd439	0.40200976
152	0x3e1a0b73	0.1504343
153	0xbed8d218	-0.4234779
154	0xbe912d65	-0.28354946
155	0xbe08ec96	-0.133715
156	0xbe6915b8	-0.22762191
157	0xbe908305	-0.2822496
158	0x3dc6f372	0.09714402
159	0xbdc65392	-0.096839085
160	0xbdeb452a	-0.114878014
161	0xbd61034a	-0.054934777
162	0xbdcbd841	-0.099533565
163	0xbf123031	-0.57104784
164	0xbc78a89f	-0.015176921
165	0x3ddfa1bf	0.109195225
166	0xbeadadbd	-0.33921614
167	0x3dd2b836	0.10289042
168	0x3e8d9097	0.27649376
169	0x3e926cf5	0.28598753
170	0x3e48e3b0	0.19618106
171	0xbd39d73d	-0.045371283
172	0xbea728bc	-0.32648265
173	0x3cdfe639	0.027331458
174	0x3e2833d0	0.16426015
175	0x3e6e5f38	0.2327851
176	0xbe0d96aa	-0.13827005
177	0xbe7f871d	-0.24953885
178	0xbeb03878	-0.34418082
179	0x3eea2471	0.45730928
180	0xbe9abaad	-0.30220547
181	0x3e9e24c4	0.30887425
182	0xbec29776	-0.3800618
183	0x3e7bba77	0.2458285
184	0x3e752987	0.23941623
185	0xbe9a85d5	-0.3018023
186	0xbe8b47d1	-0.2720323
187	0x3c86ff9a	0.016479302
188	0xbdb5820b	-0.08862694
189	0xbdf49101	-0.1194172
190	0x3ea4991a	0.32148057
191	0xbe53e85a	-0.20694104
192	0xbca57ac6	-0.020200144
193	0xbe78abdf	-0.24284314
194	0xbebd1c91	-0.36935857
195	0xbed641ad	-0.41846982
196	0xbe146fbb	-0.14495747
197	0x3e46711f	0.1937909
198	0xbe03ff66	-0.12890396
199	0x3dc3ed86	0.095667884
200	0x3c81b75a	0.0158345
201	0x3e10b65a	0.14132062
202	0x3da88873	0.082291506
203	0xbe99d0b4	-0.3004204
204	0xbe68b8a7	-0.2272669
205	0x3e6ddce9	0.23228802
206	0x3e8dad77	0.27671406
207	0x3efd9235	0.4952561
208	0xbd7bcbe1	-0.06147373
209	0xbe8696c6	-0.26286906
210	0xbe8aaa4d	-0.27083054
211	0x3f3e1f69	0.7426668
212	0xbd9328cf	-0.07185518
213	0x3e617bc0	0.22019863
214	0xbe9c7234	-0.3055588
215	0x3ee485f4	0.44633448
216	0x3eda70af	0.42664096
217	0xbe9bbc6c	-0.30417192
218	0xbe8d1789	-0.27557018
219	0xbe906da5	-0.28208652
220	0xbeec94f5	-0.46207395
221	0xbe523f64	-0.20531994
222	0x3eafcdec	0.34336793
223	0xbe9b3689	-0.30315045
224	0xbe47694c	-0.19473761
225	0xbe48c55d	-0.19606538
226	0xbec9b759	-0.39397696
227	0xbee59707	-0.44841787
228	0xbc14e436	-0.009087613
229	0x3ea68976	0.3252675
230	0xbe5ed893	-0.21762304
231	0x3eba5721	0.363946
232	0x3e9f94c1	0.31168178
233	0x3d35de4d	0.044401456
234	0x3e9a4a11	0.30134633
235	0xbe45a540	-0.19301319
236	0xbe8d53c9	-0.27602986
237	0x3cd98b35	0.026555637
238	0x3ea25c0b	0.31710848
239	0x3e390832	0.18069533
240	0xbe9d3354	-0.30703223
241	0xbe9dc1e4	-0.3081199
242	0xbebce38f	-0.36892363
243	0x3efeb084	0.49744046
244	0xbe95e116	-0.2927329
245	0x3eaf5397	0.3424346
246	0xbccaa260	-0.02473563
247	0x3e458c24	0.1929174
248	0x3e9e96ab	0.30974326
249	0xbe753e4d	-0.23949547
250	0xbe7096be	-0.23495004
251	0xbdf87bd8	-0.12132996
252	0xbef27bc1	-0.47360042
253	0xbe84ef7c	-0.25963962
254	0x3e9b44e2	0.3032599
255	0xbd99626a	-0.07489474

fc.bias f4 [8]
0	0xbe615819	-0.22006263
1	0xbd70b6ea	-0.05876819
2	0x3ca7c783	0.020480877
3	0xbe8a09b7	-0.26960537
4	0xbe82f284	-0.2557565
5	0xbe8417b4	-0.25799334
6	0x3caa498b	0.020787021
7	0xbe3ab8f1	-0.18234612
