backup/real_time_trained_model.pth (torch, 639966 bytes, 27 tensors)

lstm.weight_ih_l0 f4 [256, 8]
0	0x3d4489c0	0.04798293
1	0x3e0457d5	0.1292413
2	0xbcf1b826	-0.029506754
3	0xbd88b0dc	-0.06674358
4	0x3ddb44f0	0.10706508
5	0x3c3ae738	0.011407666
6	0xbcc92372	-0.024553034
7	0x3d92ba88	0.07164484
8	0x3d5dbb9d	0.054134
9	0xbdbe734b	-0.09299334
10	0x3bd71d34	0.0065647606
11	0xbca8e476	-0.020616751
12	0x3d470773	0.04859109
13	0xbd946aa0	-0.072468996
14	0x3de8adcd	0.11361275
15	0xbd83dc94	-0.06438556
16	0xbac0e096	-0.0014715369
17	0xbd91e06d	-0.07122884
18	0x3d1aa25e	0.0377525
19	0x3d72f7c4	0.05931832
20	0x3d3c838e	0.046023898
21	0xbd6a5ff5	-0.057220418
22	0xbd934d74	-0.071925074
23	0x3cf9150f	0.03040555
24	0xbcbbc23d	-0.022919768
25	0x3e0a551f	0.13509034
26	0xbdae6e92	-0.08517183
27	0x3db40c96	0.08791463
28	0x3d8b5cf5	0.068048395
29	0x3e02995a	0.12753811
30	0x3dd13903	0.10215952
31	0x3d035e64	0.03207244
32	0x3cd0a552	0.025469456
33	0x3d8e59e5	0.0695074
34	0xbcae9377	-0.021310551
35	0xbd868645	-0.06568579
36	0x3d45f855	0.04833253
37	0xbd13d8b3	-0.036095332
38	0x3dbe862e	0.093029365
39	0xbc0121a6	-0.007881558
40	0xbd9dfbb3	-0.077140234
41	0xbddbd9a1	-0.10734869
42	0x3dc9b6bf	0.09849309
43	0x3d7830b3	0.06059332
44	0xbdec1930	-0.11528242
45	0xbdec4a60	-0.115376234
46	0xbd67d5ad	-0.05660026
47	0x3cd1883f	0.025577663
48	0x3db8e77e	0.09028529
49	0xbc945ee9	-0.018111663
50	0xbd33ea7f	-0.043924805
51	0x3d336fbf	0.04380774
52	0x3dee4328	0.11633903
53	0xbd3c492a	-0.045968212
54	0xbcbaec55	-0.02281777
55	0x3d7fd5f7	0.062459912
56	0x3dbdb52a	0.0926307
57	0xbbab0084	-0.0052185673
58	0xbdeb9c36	-0.11504404
59	0xbe06d5f2	-0.13167551
60	0xbda69d55	-0.081354775
61	0x3d86a8d9	0.06575174
62	0x3d450f1c	0.048110113
63	0xbd46988a	-0.048485316
64	0xbd4bc4a0	-0.049748063
65	0x3baa39b8	0.005194869
66	0x3da15b08	0.07878691
67	0x3c1f2401	0.009713174
68	0xbda32110	-0.079652905
69	0x3d739c54	0.059475258
70	0x3dfc3d14	0.12316337
71	0x3d794e91	0.060865942
72	0xbda9e1d3	-0.08295026
73	0x3d79b8fb	0.060967427
74	0xbd82b356	-0.06381862
75	0x3d1cf04b	0.0383151
76	0xbdb84f1c	-0.08999464
77	0xbc755b13	-0.014975327
78	0x3c8fdcff	0.017561434
79	0xbd34aecb	-0.044112008
80	0x3d824982	0.06361677
81	0xbcb40f60	-0.021979988
82	0x3ded673d	0.11591957
83	0x3d25b77a	0.04045818
84	0xbd61e446	-0.05514934
85	0xbdac309d	-0.0840771
86	0x3d7c56cf	0.061606225
87	0x3dceef44	0.1010423
88	0xbd0cd45c	-0.03438221
89	0x3cb5646c	0.022142611
90	0x3c1fd40a	0.009755144
91	0xbd9c7776	-0.07639973
92	0x3d9a6947	0.07539611
93	0xbbe5698e	-0.0070011085
94	0xbdf40251	-0.11914504
95	0xbdab5822	-0.083664194
96	0x3db2e110	0.087343335
97	0xbc8c5a16	-0.0171328
98	0x3c34e808	0.011041649
99	0xbdea5341	-0.11441661
100	0xbda4a869	-0.08039934
101	0x3dd65393	0.10465159
102	0xbddbc76f	-0.10731398
103	0xbdd33f9b	-0.10314866
104	0xbdc7507c	-0.09732148
105	0xbc2531f8	-0.010082714
106	0xbdb5adc8	-0.08871037
107	0xbde1afef	-0.11019885
108	0xbd6d4e14	-0.05793579
109	0x3cba4046	0.022735726
110	0xbd2f2b68	-0.042766005
111	0xb8a7483c	-7.976635e-05
112	0x3d857695	0.06516758
113	0x3d908b71	0.07057846
114	0xbdff34ae	-0.1246122
115	0xbe0562f4	-0.13026029
116	0xbdd6c569	-0.10486872
117	0xbd1767e9	-0.03696433
118	0x3dd63614	0.10459533
119	0x3d83e8e6	0.06440906
120	0xbd8811a2	-0.06643988
121	0x3d194819	0.037422273
122	0x3de665dd	0.11249898
123	0x3c95a2d3	0.018266117
124	0xbc77d23f	-0.01512581
125	0xbca6f1ee	-0.020379033
126	0x3c51453e	0.012772856
127	0x3dc9c5d2	0.09852184
128	0xbd44eca6	-0.048077248
129	0xbca25b71	-0.019818993
130	0x3de9abc8	0.11409718
131	0x3db0e41e	0.0863726
132	0x3c9acf42	0.018897656
133	0xbda5d4a1	-0.08097196
134	0xbd8c7f44	-0.068602115
135	0xbb9f6375	-0.004864151
136	0xbdb3ffc1	-0.087890156
137	0x3d8f4320	0.06995225
138	0xbdced9fe	-0.101001725
139	0xbda4d585	-0.08048538
140	0xbdb0fd3c	-0.086420506
141	0x3dd813f1	0.105506785
142	0x3db1f8b1	0.08690012
143	0x3dc09c58	0.0940482
144	0x3c32dac7	0.010916418
145	0xbd46c37a	-0.048526265
146	0x3ddb4e3c	0.107082814
147	0xbd792152	-0.060822792
148	0x3d0bc506	0.034123443
149	0xbdd5ea15	-0.10445038
150	0x3dccbb20	0.09996629
151	0x3db2e796	0.08735578
152	0xbdc532d3	-0.096288346
153	0x3d4a7404	0.049427047
154	0x3d21560b	0.039388698
155	0x3c79ee31	0.015254543
156	0xbcd8ea6d	-0.02647897
157	0x3d285f98	0.04110679
158	0x3d7ca345	0.061679143
159	0xbd892ad5	-0.06697623
160	0x3c606d95	0.013698001
161	0x3dfdc481	0.12390996
162	0xbc920871	-0.01782629
163	0xbd2b892d	-0.041878868
164	0xbc5e165a	-0.013555134
165	0x3d851fad	0.06500182
166	0xbc9c08c8	-0.019047156
167	0x3adb408a	0.0016727608
168	0x3ccd5f68	0.025069907
169	0xbd646d06	-0.055768035
170	0xbb679b6b	-0.003534044
171	0x3d8cb597	0.06870573
172	0x3d8fa642	0.07014133
173	0xbdabcfb0	-0.083892226
174	0x3d5a8b8c	0.05335574
175	0x3d2e949f	0.042622205
176	0xbd0a3af3	-0.033747625
177	0x3de693ec	0.112586826
178	0x3dbbdf8a	0.09173496
179	0x3e04a535	0.12953646
180	0x3dc4c44a	0.09607752
181	0x3d1de41f	0.03854763
182	0x3dac16cb	0.08402785
183	0xbd1cd569	-0.03828946
184	0x3ca322dd	0.019914085
185	0xbda2de27	-0.079525284
186	0x3dd73415	0.10507981
187	0x3cc849cb	0.02444925
188	0x3d417ac7	0.04723623
189	0xbd9b05aa	-0.0756944
190	0xbdc93983	-0.098254226
191	0xbdee87bc	-0.11646983
192	0x3d0dbf02	0.034605987
193	0x3beec2e1	0.007286415
194	0xbd54af80	-0.051925182
195	0x3dae6475	0.085152544
196	0x3ccdf6ad	0.025142038
197	0x3decb60f	0.115581624
198	0xbc401561	-0.011723847
199	0xbcb92de6	-0.022604894
200	0x3d532db7	0.05155727
201	0xbd712476	-0.058872662
202	0xbdc2ad39	-0.09505696
203	0xbddd9711	-0.10819829
204	0x3c6cfd41	0.014464677
205	0xbcbe5a0c	-0.023236297
206	0x3dec2456	0.11530368
207	0xbd5a1243	-0.053240072
208	0xbca0c849	-0.019626753
209	0xbc189c99	-0.00931468
210	0xbd26c1b2	-0.040712066
211	0xbcc1c3c0	-0.023652911
212	0xbdd1235e	-0.10211824
213	0x3d00c319	0.03143606
214	0x3d9b089f	0.07570004
215	0x3c16ca10	0.009203449
216	0x3cc53139	0.024071323
217	0x3df6c328	0.12048942
218	0x3de70839	0.11280865
219	0x3d282c1f	0.041057702
220	0xbdde617a	-0.10858436
221	0xbccdd2d5	-0.025124947
222	0xbbe6a0e8	-0.0070382245
223	0xbcf87a6d	-0.030331815
224	0x3b5c6bb4	0.0033633532
225	0x3d785784	0.060630336
226	0xbd2d1ca7	-0.042263653
227	0xbde8f5f7	-0.11375039
228	0xbb75101d	-0.0037393637
229	0x3dffb320	0.12485337
230	0x3ab39538	0.0013701087
231	0x3dead773	0.11466875
232	0xbde58c2b	-0.112083755
233	0x3d7aa4ff	0.06119251
234	0xbd304c02	-0.043041237
235	0xbc07f9fb	-0.008299346
236	0xbd4c68cb	-0.049904626
237	0xbd6854e4	-0.056721583
238	0xbd2b92bd	-0.041887987
239	0xbdd626a8	-0.10456592
240	0xbd0ae7d5	-0.0339125
241	0x3d76b9a0	0.06023562
242	0xbd69100c	-0.05690007
243	0xbd2813d5	-0.04103454
244	0xbdd59577	-0.10428899
245	0xbd4bcfec	-0.049758837
246	0xbdd432f4	-0.10361281
247	0xbddbb190	-0.10727227
248	0xbb9157c2	-0.0044355104
249	0xbdc46944	-0.0959039
250	0x3cc61e8e	0.024184491
251	0x3d452178	0.04812762
252	0xbdb4c479	-0.08826537
253	0x3da4df92	0.08050455
254	0x3cf664ba	0.030077327
255	0x3de9618a	0.11395557

lstm.weight_hh_l0 f4 [256, 64]
0	0x3dbb056a	0.09131892
1	0xbd267dfb	-0.040647488
2	0x3ca08396	0.019593995
3	0x3c4d796a	0.012541154
4	0xbdf35d29	-0.11883003
5	0x3cb9ca05	0.022679338
6	0x3dda14e3	0.10648515
7	0x3df41333	0.119177245
8	0xbcc4c6f7	-0.024020655
9	0x3d21d786	0.03951218
10	0x3d18a01d	0.03726207
11	0xbaed2d94	-0.0018095248
12	0xbddde5a2	-0.108348146
13	0xbc000e56	-0.007815918
14	0x3dc7ea33	0.09761467
15	0x3ac9e34a	0.001540282
16	0xbc804fcc	-0.01566305
17	0x3c57f951	0.013182
18	0x3cc8255c	0.024431877
19	0x3df25756	0.11833064
20	0xbcff483d	-0.031162376
21	0xbc9ce6f0	-0.019153088
22	0xbcb41b5b	-0.0219857
23	0xbb9b6aa3	-0.0047429367
24	0x3ca23526	0.019800734
25	0xbd93c142	-0.072145954
26	0xbde76940	-0.11299372
27	0xbdab4df2	-0.08364476
28	0x3db4572f	0.088056915
29	0xbd49c630	-0.049261272
30	0x3d89fef4	0.067380816
31	0x3a62649c	0.0008636208
32	0xbd8c032e	-0.06836544
33	0xbdd3b53f	-0.10337304
34	0xbc4b3b8d	-0.012404335
35	0xbd44574e	-0.047934823
36	0x3d866dc8	0.06563908
37	0xbd9e460a	-0.07728203
38	0x3b90a2c1	0.004413933
39	0x3dc5e6b6	0.09663145
40	0xbce0286f	-0.02736303
41	0x3c1cf706	0.009580379
42	0x3b0b66d4	0.0021271007
43	0xbae026e6	-0.0017101436
44	0x3d6938ab	0.05693881
45	0x3bdf2484	0.006809773
46	0x3dcf2721	0.10114885
47	0x3dbed57b	0.09318062
48	0x3a767d91	0.0009402866
49	0x3db542f4	0.08850661
50	0xbdab3a3b	-0.08360716
51	0x3d450eff	0.048110005
52	0x3d86004c	0.065430254
53	0xbd9d2d0d	-0.076746084
54	0x3dc27800	0.094955444
55	0x3d54861b	0.051885705
56	0xbdfbf90b	-0.123033606
57	0xbdb415dc	-0.08793232
58	0x3d850485	0.06495003
59	0x3e07b8db	0.1325411
60	0xbd9b805d	-0.07592843
61	0xbdf37f7b	-0.11889549
62	0x3de439fc	0.11143872
63	0x3dd7fcb9	0.1054625
64	0xbdbcc5d4	-0.0921742
65	0x3da6603c	0.08123824
66	0x3d59c7e0	0.05316913
67	0x3db57ef7	0.08862107
68	0xbdb4c296	-0.08826177
69	0x3daf7ef0	0.08569133
70	0xbd968c85	-0.07351021
71	0xbda345c6	-0.079722926
72	0xbd80ee7c	-0.06295487
73	0x3dd9102b	0.10598787
74	0x3d0dfa74	0.03466268
75	0xbe007da6	-0.12547931
76	0x3c9c582f	0.019085018
77	0xbd77d433	-0.060505103
78	0xbcce50a7	-0.025184942
79	0xbdee3b91	-0.11632455
80	0xbd3d3261	-0.046190623
81	0x3dda5c07	0.10662084
82	0x3e01d831	0.12680127
83	0xbdafe328	-0.085882485
84	0x3cd90c64	0.026495166
85	0xbd17b0af	-0.037033733
86	0xbd5beafb	-0.05369089
87	0xbd38d367	-0.045123484
88	0xbdc6e0eb	-0.097108684
89	0x3d86ffda	0.065917686
90	0x3dbfb1e8	0.09360105
91	0xbd8b7502	-0.06809427
92	0xbcd58ad4	-0.026067175
93	0xbc2ccb4b	-0.010546516
94	0xbdc491bb	-0.095981084
95	0xbd9fbe02	-0.07799913
96	0xbda44314	-0.08020607
97	0xbdcf1f7b	-0.10113426
98	0xbd963fac	-0.07336363
99	0x3de65a68	0.112477124
100	0xbd15ae97	-0.036543455
101	0xbdb55e58	-0.08855885
102	0x3d923ff7	0.071411066
103	0xbd9cddd3	-0.07659497
104	0x3d0030db	0.031296592
105	0xbce8f1b6	-0.02843557
106	0xbdcae360	-0.099066496
107	0xbdc67fb1	-0.09692324
108	0x3d3f32f0	0.046679437
109	0xbdce93d8	-0.10086793
110	0xbd5620ac	-0.052277252
111	0xbce71240	-0.028206944
112	0xbdd2fa8f	-0.103016965
113	0xbdcb30f4	-0.099214464
114	0x3e022034	0.12707597
115	0x3dc56044	0.09637502
116	0xbbbb5b9b	-0.0057177073
117	0xbdbe1efb	-0.09283253
118	0x3c332ba2	0.010935696
119	0xbdfef349	-0.12448747
120	0x3da6e7b2	0.08149661
121	0xbddf46af	-0.10902154
122	0x3dbff50d	0.093729116
123	0x3d4276b8	0.0474765
124	0xbde75742	-0.1129594
125	0xbbaa0a09	-0.0051891846
126	0xbd912f0c	-0.070890516
127	0xbd965d4e	-0.07342015
128	0xbdc9ee57	-0.09859913
129	0xbcbb0ff7	-0.022834761
130	0x3d4d61cf	0.050142106
131	0x3d104c47	0.035228994
132	0x3db211f8	0.086948335
133	0xbdc563ee	-0.09638201
134	0x3c3903c2	0.0112924
135	0xbde9f137	-0.11422961
136	0xbc01ed8f	-0.007930174
137	0xbd1559c1	-0.03646255
138	0x3ddce096	0.10785024
139	0x3bdf79e6	0.0068199513
140	0xbdee3773	-0.1163167
141	0x3ab3c113	0.0013714157
142	0xbd913428	-0.07090026
143	0x3d0d6835	0.034523208
144	0x3d916b94	0.07100597
145	0xbd9a8706	-0.07545285
146	0x3daadf4c	0.08343372
147	0xbc9276b1	-0.017878862
148	0x3d4914c1	0.049092058
149	0xbdf13ae3	-0.1177881
150	0x3d9a1dbf	0.07525205
151	0xbd4cd8f2	-0.050011583
152	0x3ddca6f5	0.10774032
153	0x3d11afa0	0.03556788
154	0xbd71bd2a	-0.05901829
155	0x3d95df8a	0.07318027
156	0x3d2232d7	0.039599266
157	0xbd87db28	-0.066335976
158	0xbd4e409d	-0.05035459
159	0x3d46ffd0	0.048583806
160	0xbda30064	-0.07959059
161	0xbd6ff62e	-0.058584385
162	0xbd95cb63	-0.073141836
163	0xbdf13b4a	-0.117788866
164	0x3d975478	0.07389158
165	0x3d4128f3	0.047158193
166	0xbd543478	-0.05180785
167	0x3d7a217b	0.061067086
168	0x3de4c473	0.11170282
169	0x3e052a9b	0.13004534
170	0x3d4444ca	0.047917165
171	0xbcf9b58e	-0.03048208
172	0x3d70f976	0.058831654
173	0xbcf2f3b5	-0.029657224
174	0xbcba8ca4	-0.02277214
175	0xbe00448f	-0.12526153
176	0x3d356c84	0.04429294
177	0x3dace730	0.08442533
178	0x3dc6e60d	0.097118475
179	0xbd921355	-0.071325935
180	0xbbd098b9	-0.006365862
181	0xbbcfa4d0	-0.006336786
182	0xbc3cda34	-0.011526633
183	0xbdb930f3	-0.090425394
184	0xbd93b0d6	-0.07211463
185	0x3de96d4a	0.11397798
186	0xbdf1e32e	-0.11810909
187	0x3dba7313	0.0910398
188	0x3da16684	0.078808814
189	0x3cc3532d	0.023843372
190	0xbddd169a	-0.107953265
191	0x3db41a08	0.087940276
192	0x3dddbb8e	0.10826789
193	0x3c9c6bca	0.019094367
194	0x3ddeb7a8	0.108748734
195	0xbd6e63af	-0.058200534
196	0xbc1b72dc	-0.009487834
197	0x3cab5eae	0.02091917
198	0x3ddcc94b	0.10780581
199	0x3df502bb	0.119634114
200	0x3da7c4ef	0.08191859
201	0xba134005	-0.00056171446
202	0x3d0f43f7	0.034976926
203	0x3d0084ef	0.031376775
204	0x3ce6bb5e	0.028165516
205	0xbd5706e5	-0.05249681
206	0x3dadcb37	0.08486026
207	0x3dc262d7	0.094915085
208	0x3d7566ec	0.059912607
209	0xbd6d646e	-0.057957105
210	0x3da96358	0.082709014
211	0x3c3dba71	0.011580096
212	0x3dba4c79	0.09096617
213	0xbda3ac25	-0.07991818
214	0x3dae667f	0.08515643
215	0x3ce23e3a	0.027617563
216	0x3d8fcb64	0.070212156
217	0x3d9ab0c8	0.075532496
218	0x3dcc8ae9	0.099874325
219	0x3dc4bf2e	0.09606777
220	0x3d966822	0.073440805
221	0xbdf77410	-0.12082684
222	0xbc32f84c	-0.010923456
223	0x3d24fc38	0.040279597
224	0x3d1154b9	0.03548119
225	0xbd75bb37	-0.059992995
226	0x3c9fda12	0.019513164
227	0x3ddbea3c	0.10738036
228	0x3d5ca367	0.05386677
229	0x3d00146a	0.03126947
230	0xbbd41dc4	-0.006473275
231	0xbd8d0dae	-0.06887375
232	0xbdd2ad5f	-0.10286974
233	0x3c11f315	0.008908053
234	0xbdff9d41	-0.12481166
235	0x3dc56cc5	0.09639887
236	0x3ca288d6	0.01984064
237	0x3db99c1f	0.09062981
238	0xbd103dbc	-0.035215124
239	0xbca63da7	-0.02029307
240	0xbd5424f2	-0.051793046
241	0xbd90833f	-0.07056283
242	0x3d645b36	0.055751048
243	0x3dde1a70	0.10844886
244	0x3de1fe1d	0.110347964
245	0x3ca53dc1	0.020171048
246	0x3bfc30e5	0.0076962584
247	0xbd4ffd35	-0.050778586
248	0xba8b303d	-0.0010619235
249	0x3db57af6	0.088613436
250	0xbe02cb2d	-0.12772818
251	0x3daac72e	0.08338772
252	0x3d89b2f4	0.06723586
253	0xbd647de8	-0.055784136
254	0xbd184a2c	-0.03718011
255	0xbdb1b5a6	-0.08677225

lstm.bias_ih_l0 f4 [256]
0	0x3dff8cb1	0.12478007
1	0x3d87f3e1	0.06638313
2	0x3d9436bf	0.072370045
3	0x3d9a7641	0.075420864
4	0x3ddc1f1b	0.107481204
5	0x3d7a38ee	0.06108945
6	0xbc8643c1	-0.01638973
7	0xbd522207	-0.051301982
8	0x3e00d485	0.1258107
9	0xbd71f2ff	-0.05906963
10	0xbdaf6d48	-0.085657656
11	0x3d56a857	0.052406635
12	0xbd56ef44	-0.052474275
13	0xbdeb596c	-0.11491665
14	0xbd6b7a90	-0.05748993
15	0xbddbc5a4	-0.10731056
16	0xbdc81d04	-0.09771159
17	0xbd8d90ba	-0.0691237
18	0x3e080207	0.13282023
19	0x3e0191b6	0.1265324
20	0x3cb3cb55	0.021947542
21	0x3dae336c	0.08505902
22	0xbd963708	-0.07334715
23	0xbda38b4a	-0.07985552
24	0xbd61f824	-0.055168286
25	0x3d10e9af	0.035379108
26	0x3d51187e	0.05104875
27	0xbd9c3e5e	-0.07629083
28	0x3cf7b1d2	0.030236159
29	0xbd6a7ea1	-0.05724967
30	0x3de2fd35	0.11083452
31	0x3d2941b1	0.041322414
32	0x3d072893	0.03299768
33	0x3d22e8de	0.03977286
34	0x3ba9105b	0.0051594204
35	0xbd9d7e3a	-0.076900914
36	0xbdd56a2c	-0.10420641
37	0xbcd37db1	-0.02581677
38	0x3c84e8ee	0.01622435
39	0xbd1efeb5	-0.038817126
40	0x3cd1565d	0.025553877
41	0x3d9becca	0.07613523
42	0xbc902e3c	-0.017600171
43	0xbdf34d73	-0.11880007
44	0xbcfda1f5	-0.030961016
45	0x3d459ac9	0.048243318
46	0x3d227029	0.039657746
47	0x3cd4e59f	0.025988398
48	0xbca70d15	-0.02039198
49	0x3d5cc6f6	0.05390068
50	0x3e05b4bf	0.1305723
51	0xbd63eb00	-0.055644035
52	0xbd272c56	-0.040813766
53	0x3d6c3c78	0.057674855
54	0xbd1c962c	-0.038229153
55	0x3dbf1506	0.09330182
56	0x3de9bf6e	0.114134654
57	0x3d511f3d	0.05105518
58	0x3cbc0029	0.022949295
59	0x3da77d61	0.08178211
60	0xbdf8a3e9	-0.121406384
61	0xbd5f2ac7	-0.054484155
62	0xbda6a6c4	-0.08137277
63	0xbdbdfc28	-0.092766106
64	0x3d6fbf04	0.058531776
65	0xbd8bd2ff	-0.06827354
66	0xbdaa1c4f	-0.08306181
67	0xbd04de8d	-0.032438803
68	0x3c8bf315	0.017083684
69	0x3dc78586	0.097422644
70	0x3d60af14	0.054854468
71	0xbd10d437	-0.035358634
72	0xbda54c6a	-0.080712155
73	0xbdc89213	-0.097934864
74	0x3cc11590	0.023569852
75	0xbda0c7c7	-0.078506045
76	0x3d66ecee	0.056378298
77	0xbd859b95	-0.065238155
78	0xbca0bd53	-0.019621527
79	0x3bbf651d	0.005840911
80	0x3de2fdfb	0.11083599
81	0x3dfb8431	0.12281073
82	0x3baa6c84	0.0052009244
83	0x3dfd284a	0.123612
84	0x3d155f9a	0.036468126
85	0xbda8d6ee	-0.082441196
86	0x3dfb844d	0.12281094
87	0xbdd4941b	-0.103798114
88	0xbbe41a9c	-0.00696118
89	0xbd050ca3	-0.032482754
90	0xbb9d8c4a	-0.0048079835
91	0xbd9a17f8	-0.07524103
92	0x3d989ff1	0.074523814
93	0x3deb6161	0.11493183
94	0xbdca4a50	-0.09877455
95	0x3d8b386c	0.06797871
96	0xbd895e90	-0.067074895
97	0x3d990e91	0.074734814
98	0x3daf2718	0.085523784
99	0x3cd37552	0.025812779
100	0x3defa5aa	0.1170152
101	0xbe0556fb	-0.13021462
102	0x3de0b612	0.10972227
103	0xbd4d434c	-0.050113007
104	0x3d22d85b	0.039757114
105	0xbd00ca48	-0.03144291
106	0x3d0f408f	0.034973677
107	0x3d6793ff	0.056537624
108	0xbcda80e0	-0.02667278
109	0xbd6de07a	-0.058075406
110	0xbccf0cfa	-0.025274742
111	0xbdb262ec	-0.08710274
112	0x3de84250	0.11340773
113	0x3d9c443f	0.076302044
114	0xbd9fcfbc	-0.07803294
115	0x3b5b9aff	0.0033509133
116	0xbda86dda	-0.082240775
117	0x3cd688c5	0.026188264
118	0xbccbf624	-0.024897642
119	0x3d7c470f	0.061591204
120	0xbdfe1e32	-0.12408103
121	0xbd61b049	-0.05509976
122	0xbd2eb6ad	-0.042654682
123	0x3c452782	0.012033345
124	0xbd667aa1	-0.05626929
125	0x3dfb21fc	0.122623414
126	0xbcf33a87	-0.029690994
127	0x3dac95a0	0.08426976
128	0x3e0a9ec6	0.1353713
129	0x3da7e000	0.081970215
130	0xbaf59b5a	-0.0018738315
131	0x3d9d9ff4	0.07696524
132	0x3d452ce6	0.04813852
133	0xbc0c37bf	-0.008558213
134	0x3dea9f97	0.114562206
135	0xbdb81cc7	-0.08989864
136	0xbc2d50a0	-0.0105783045
137	0x3da9bc99	0.08287925
138	0xbdc2271f	-0.09480118
139	0xbd972db2	-0.073817626
140	0xbda5fbbc	-0.08104655
141	0x3dcad44b	0.09903773
142	0xbdb887ec	-0.090103
143	0x3de4572b	0.111494385
144	0x3d8454ee	0.064615116
145	0x3dce4661	0.100720175
146	0x3db2f96b	0.08738979
147	0x3c97715e	0.018486675
148	0xbd96a561	-0.07355762
149	0x3da0f2e8	0.07858831
150	0x3dd3091f	0.10304474
151	0xbdc4718b	-0.09591969
152	0xbddd2b34	-0.10799256
153	0x3d977886	0.07396035
154	0xbd624c61	-0.05524862
155	0xbdd99de7	-0.106258206
156	0xbd2ae343	-0.04172064
157	0xbdf67274	-0.12033549
158	0xbd932b42	-0.07185985
159	0x3c168559	0.009187066
160	0xbce097aa	-0.027416069
161	0x3dd84e31	0.10561789
162	0xbd502398	-0.050815195
163	0x3da74477	0.081673555
164	0xbd004704	-0.031317726
165	0x3d0f6a30	0.035013378
166	0x3d8535d2	0.06504406
167	0x3d84074a	0.06446703
168	0x3bc06969	0.005871941
169	0x3dc040ca	0.093873575
170	0x3da496ba	0.08036561
171	0x3c9c3363	0.019067472
172	0xbd6e272a	-0.05814282
173	0x3d777b3c	0.06042026
174	0xbdd987bc	-0.106215924
175	0xbe09798f	-0.13425277
176	0x3dae616e	0.08514677
177	0x3c0728de	0.00824949
178	0x3bda424d	0.0066607357
179	0xbd60d897	-0.054894056
180	0xbdf1672c	-0.117872566
181	0xbc4a1d8b	-0.012336145
182	0xbcbb28fb	-0.02284669
183	0x3d973902	0.0738392
184	0x3d89217d	0.066958405
185	0xbd811f3b	-0.06304785
186	0x3ddc1597	0.107463054
187	0xbd327877	-0.043571915
188	0x3d792c2d	0.060833145
189	0x3ddb7960	0.1071651
190	0xbcd258be	-0.025677081
191	0xbc63c193	-0.013901132
192	0xbc9c1e3d	-0.019057387
193	0x3db866e3	0.09003999
194	0xbda561c5	-0.08075289
195	0xbd006985	-0.03135063
196	0xbdae580b	-0.085128866
197	0xbd094799	-0.033515546
198	0xbd8504e5	-0.06495074
199	0xbddcda2f	-0.10783803
200	0x3db0d90c	0.086351484
201	0x3d99e411	0.07514203
202	0x3df598f2	0.11992063
203	0xbd3ac5f9	-0.045598958
204	0x3d81a275	0.06329814
205	0xbdf45eb3	-0.11932125
206	0xbdc8df31	-0.098081954
207	0x3dedf882	0.11619665
208	0xbcd62819	-0.026142167
209	0xbcdec886	-0.027195226
210	0x3df70be3	0.12062814
211	0x3cebe967	0.028797818
212	0xbd7d2d6b	-0.061810892
213	0xbd938ceb	-0.07204612
214	0xbd6aac7d	-0.057293404
215	0xbdaf28f4	-0.08552733
216	0x3cbd9e01	0.023146631
217	0xbde83e0e	-0.11339961
218	0xbc1205e7	-0.00891254
219	0xbb7af71a	-0.0038294257
220	0xbd85ec27	-0.06539183
221	0x3da58070	0.08081138
222	0xbd07838a	-0.03308443
223	0x3be15501	0.0068765883
224	0x3b49f4e8	0.0030816142
225	0x3c6933a2	0.014233502
226	0x3da0aeff	0.07845878
227	0xbb46d47f	-0.003033906
228	0xbdb6e3a6	-0.08930139
229	0x3d212749	0.039344106
230	0xbdc2f512	-0.095194
231	0xbd69a84d	-0.05704527
232	0xbdc4f5df	-0.09617209
233	0xbcbce2e6	-0.023057412
234	0xbdf709df	-0.1206243
235	0xbdfd5890	-0.123704076
236	0xbdc3f239	-0.09567685
237	0xbdcec409	-0.100959845
238	0x3e04707a	0.12933531
239	0x3b0bded5	0.0021342535
240	0xbd20434b	-0.039126676
241	0x3c93110d	0.017952466
242	0x3d4a3d40	0.04937482
243	0x3d8519dd	0.06499074
244	0xbcd4dcc2	-0.025984172
245	0xbd32ba21	-0.043634538
246	0x3d9f7119	0.077852435
247	0xbbb0b3fe	-0.0053925505
248	0x3d7b89ab	0.061410587
249	0xbcc696b3	-0.02424178
250	0x3d4a7606	0.049428962
251	0x3c29e78a	0.010370145
252	0xbdbb31fa	-0.09140392
253	0xbd376d65	-0.04478206
254	0xbd8bd145	-0.06827024
255	0xbd6c22ab	-0.05765025

lstm.bias_hh_l0 f4 [256]
0	0xbd87d6fb	-0.06632801
1	0xbd95a3f6	-0.07306664
2	0x3d316552	0.043309517
3	0x3d8baf68	0.068205655
4	0xbdf0c92f	-0.11757123
5	0x3de97f27	0.114012055
6	0x3dd7aba8	0.10530788
7	0xbe055ed6	-0.13024458
8	0xbd35130b	-0.044207614
9	0x3d5b3e11	0.053525988
10	0xbde917d0	-0.11381495
11	0x3dc2a5c2	0.09504272
12	0xbd87f1dd	-0.06637929
13	0xbcb02348	-0.021501198
14	0xbd6ca0b8	-0.05777046
15	0x3de1fa82	0.11034109
16	0x3df71f68	0.12066537
17	0xbdcd8f3b	-0.10037085
18	0xbc0869fb	-0.008326049
19	0x3d30827f	0.0430932
20	0x3da9bf62	0.082884565
21	0x3ca2c8a6	0.019871067
22	0x3d96a728	0.07356101
23	0x3d96a648	0.073559344
24	0x3d413f4c	0.047179505
25	0x3d288e3e	0.041151278
26	0x3df1c2a6	0.11804704
27	0xbdfbae06	-0.12289052
28	0xbcb8aaa9	-0.022542315
29	0x3dcfecde	0.10152601
30	0xbd066649	-0.03281239
31	0x3df04301	0.1173153
32	0xbd3cb797	-0.046073522
33	0x3c1a8180	0.009430289
34	0xbdef60a5	-0.11688355
35	0xbd873543	-0.06601956
36	0xbcd670eb	-0.02617689
37	0x3dbab52c	0.09116587
38	0x3d8c3f70	0.06848037
39	0xbdce2699	-0.10065956
40	0x3b04b13d	0.0020247244
41	0x3d7a5673	0.0611176
42	0xbd597e8c	-0.0530992
43	0xbdaadec9	-0.08343274
44	0x3e00a9c0	0.12564754
45	0xbd8b3ddf	-0.0679891
46	0xbdb28b1f	-0.087179415
47	0x3d7a4347	0.061099317
48	0x3ddcb66a	0.1077698
49	0xbd8006af	-0.06251275
50	0x3d0b6532	0.034032054
51	0x3d694255	0.056948025
52	0x3dce9c94	0.10088459
53	0xbda9b044	-0.08285573
54	0x3d95562a	0.07291825
55	0x3d0d5fd9	0.034515236
56	0xbdcd9206	-0.100376174
57	0xbcfb0533	-0.030642128
58	0x3cd1e448	0.025621548
59	0xbdcf1c13	-0.101127766
60	0x3cbda269	0.023148732
61	0x3c74ce3e	0.01494175
62	0x3dc22eb0	0.09481561
63	0xbd0da7c8	-0.034583837
64	0xbd480682	-0.04883433
65	0x3d94d494	0.072671086
66	0xbd323edb	-0.043516975
67	0x3dd284b6	0.10279219
68	0x3de38acb	0.11110457
69	0xbde6356c	-0.11240658
70	0xbdd170bf	-0.10226583
71	0x3d8bf4bc	0.06833789
72	0x3de9a320	0.11408067
73	0xbc8de25e	-0.017319854
74	0x3dd99563	0.106241964
75	0xbd5c4788	-0.053779155
76	0xbddbc962	-0.1073177
77	0x3d54465b	0.05182491
78	0x3dae1a9c	0.08501169
79	0x3d9a6508	0.075388014
80	0xbd60d3db	-0.05488954
81	0xbd8791e6	-0.06619625
82	0x3e04c130	0.1296432
83	0x3c3f25c7	0.011666722
84	0x3d7097f7	0.058738675
85	0x3df47db2	0.11938037
86	0xbd9c3267	-0.07626801
87	0x3d9a36bd	0.07529972
88	0x3b9ec944	0.00484577
89	0xbcc2a0fe	-0.023758408
90	0xbdd45655	-0.10368029
91	0xbdcff24a	-0.10153635
92	0x3cd2d65e	0.025736984
93	0xbce79337	-0.02826844
94	0x3d89ec42	0.06734516
95	0xbd5d266d	-0.053991724
96	0x3db10fd1	0.08645595
97	0xbd97d95b	-0.07414504
98	0x3decfb8e	0.11571418
99	0x3d869af5	0.065725245
100	0x3d1d6ef1	0.03843588
101	0xbd545c22	-0.051845677
102	0xbd49af8d	-0.049239684
103	0xbdfa87ff	-0.122329704
104	0x3d92e68e	0.07172881
105	0xbd8cd530	-0.068766
106	0x3c86e7d8	0.016467974
107	0xbd14cbb9	-0.036327098
108	0xbd75b1a6	-0.059983872
109	0xbd4b297a	-0.049600102
110	0x3cfbfc25	0.03075988
111	0x3dd74496	0.105111286
112	0x3dd76060	0.10516429
113	0xbd8280e8	-0.06372243
114	0x3c5b2dbe	0.013377605
115	0x3e013893	0.12619238
116	0xbda4648a	-0.08026989
117	0xbda0cff0	-0.07852161
118	0xbd74ae6c	-0.059736654
119	0x3bcc9ce6	0.0062442897
120	0xbde9836a	-0.11402018
121	0xbce644af	-0.028108923
122	0xbbeba176	-0.0071908785
123	0x3bcbe5f7	0.0062224823
124	0xbd945810	-0.07243359
125	0x3b5749a0	0.003285028
126	0xbd4dbb04	-0.05022718
127	0xbc7a9597	-0.015294454
128	0x3c2aa709	0.010415801
129	0xbdd21662	-0.102581754
130	0xbc21f238	-0.00988441
131	0x3ddcec40	0.107872486
132	0x3cfe5333	0.031045532
133	0xbdc1f882	-0.09471227
134	0x3d0d1622	0.034444936
135	0x3d3086b1	0.0430972
136	0xbe036238	-0.12830436
137	0xbdb90347	-0.09033828
138	0xbdce2dc1	-0.100673206
139	0xbdf83007	-0.121185355
140	0x3d9eb224	0.077488214
141	0xbd77032f	-0.06030577
142	0x3de0bcf6	0.109735414
143	0xbdb76993	-0.089556836
144	0xbc8183fe	-0.01581001
145	0xbd05b4e5	-0.032643218
146	0x3d97f3a7	0.0741952
147	0x3dc16e93	0.094449185
148	0xbcb308ea	-0.021854836
149	0xbc10427f	-0.008804916
150	0x3b3b50d5	0.0028582115
151	0xbc875745	-0.016521106
152	0xbba028b9	-0.004887667
153	0xbd95ce5a	-0.07314749
154	0xbd361419	-0.04445276
155	0x3b3ade3f	0.0028513817
156	0xbe06a885	-0.13150223
157	0xbded6b44	-0.11592725
158	0xbd9e120c	-0.07718286
159	0x3d22f724	0.039786473
160	0xbc94592a	-0.018108923
161	0x3de27449	0.11057336
162	0x3d7ce28f	0.0617395
163	0x3c8c7d50	0.017149597
164	0x3cadb8e7	0.021206332
165	0x3d6fd2af	0.058550533
166	0xbc5d2559	-0.013497674
167	0xbc2fd973	-0.010732996
168	0xbdd5436b	-0.104132496
169	0x3d99fe6e	0.07519232
170	0xbd763e77	-0.060118165
171	0xbdb238c2	-0.08702232
172	0xbde92743	-0.11384442
173	0xbcfc37a0	-0.030788243
174	0xbddbc1d8	-0.10730332
175	0x3d8bfb8d	0.06835089
176	0x3de37d16	0.111078426
177	0x3ca833e5	0.020532558
178	0xbd48a97d	-0.04898976
179	0x399da733	0.00030069947
180	0x3c55e7cd	0.013055754
181	0x3da40ea9	0.08010609
182	0xbdaf39aa	-0.085559204
183	0xbc52cbe1	-0.012865991
184	0xbd313b9e	-0.043269746
185	0x3ce1a050	0.027542263
186	0xbdd9464f	-0.106091134
187	0x3ddce963	0.107867025
188	0x3d776e9d	0.060408223
189	0xbd0a3392	-0.033740588
190	0xbdc3e2ac	-0.095647186
191	0xba12ad4c	-0.0005595281
192	0x3d01aae1	0.031657103
193	0x3ddfc9b1	0.109271415
194	0x3dc61417	0.096718006
195	0xbc256d87	-0.010096914
196	0x3c9a99bb	0.018872133
197	0xbcf1cd95	-0.029516974
198	0x3dd845fc	0.105602235
199	0xbae20110	-0.0017242748
200	0xbdcc4888	-0.09974772
201	0xbd15a6a6	-0.03653588
202	0xbde94bc3	-0.113914035
203	0x3dadb1b2	0.08481158
204	0x3d873e23	0.066036485
205	0x3de30c7d	0.11086366
206	0x3c0b805d	0.008514491
207	0xbd137a96	-0.03600558
208	0xbdf73b1f	-0.12071823
209	0x3d8ba20c	0.06818017
210	0xbdc490cb	-0.095979296
211	0x3dda1adb	0.106496535
212	0xbdb9a191	-0.090640195
213	0xbd1a8f40	-0.03773427
214	0x3d1db765	0.038504977
215	0x3db7d0cc	0.08975372
216	0xbd8ac4dd	-0.0677583
217	0x3d3425bc	0.0439813
218	0x3d9b6657	0.07587879
219	0x3d23a81a	0.039955236
220	0x3df774cd	0.12082825
221	0x3d96d152	0.073641434
222	0xbcd5c7f5	-0.026096324
223	0xbd1d3f4d	-0.038390446
224	0xbd5f85c3	-0.054570924
225	0x3d626454	0.05527146
226	0x3b0b097f	0.0021215377
227	0xbc9ce1e6	-0.019150686
228	0x3dc18f10	0.09451115
229	0xbcb34d82	-0.021887545
230	0xbd878348	-0.06616837
231	0x3bb9987b	0.005663929
232	0xbd8a4084	-0.06750587
233	0xbd8975b0	-0.067119
234	0x3b3a6ff1	0.002844807
235	0x3cd616ef	0.026133982
236	0xbd119a3d	-0.035547484
237	0xbc27c2ce	-0.010239316
238	0xbd85876f	-0.065199725
239	0xbda6345e	-0.08115457
240	0x3bbe071d	0.005799188
241	0x3d16141b	0.036640268
242	0x3d8c7f33	0.06860199
243	0xbd76ed0d	-0.060284663
244	0x3d584f0e	0.052809767
245	0xbbdcd632	-0.0067394013
246	0x3cd2bf10	0.025725871
247	0x3c946cdc	0.018118314
248	0x3b03599e	0.002004243
249	0x3d5cb8c0	0.05388713
250	0xbc0036fa	-0.007825607
251	0xbcc3a53b	-0.023882499
252	0x3dc290b4	0.09500256
253	0x3d340a7f	0.043955322
254	0x3d96862c	0.0734981
255	0x3e02b277	0.12763391

lstm.weight_ih_l1 f4 [256, 64]
0	0xbc289cc0	-0.010291278
1	0xbdef1bca	-0.11675222
2	0xbb9b80f4	-0.004745597
3	0xbde16b89	-0.11006839
4	0x3c8d0f88	0.01721932
5	0x3dc5b8f2	0.09654416
6	0x3ce2c45a	0.027681518
7	0xbd8d6185	-0.06903366
8	0xbd825796	-0.06364362
9	0x3c921401	0.017831804
10	0xbd0c5278	-0.034258336
11	0x3df1d5b2	0.11808337
12	0xbe0768d6	-0.13223585
13	0x3d5dd63e	0.054159395
14	0xbde47d7e	-0.11156748
15	0xbb81bbe3	-0.0039591654
16	0xbda57a27	-0.08079939
17	0xbdf53144	-0.11972287
18	0x3d1f280b	0.038856547
19	0xbd873d97	-0.06603544
20	0xbcb3286d	-0.021869862
21	0x3c88b3f1	0.016687365
22	0x3dd35c64	0.103203565
23	0xbd7dcac0	-0.061960936
24	0x3da86356	0.08222072
25	0x3dd48473	0.10376825
26	0x3dea58b5	0.11442701
27	0xbd2328aa	-0.039833702
28	0x3e0033a6	0.12519702
29	0x3d82c20d	0.063846685
30	0xbdcdb7b6	-0.10044806
31	0x3dd7c253	0.10535111
32	0xbbebd972	-0.0071975524
33	0xbdf16ced	-0.11788354
34	0x3cd603c6	0.026124846
35	0xbd2b302a	-0.04179398
36	0xbd5e9d2f	-0.05434912
37	0x3d0215f1	0.031759206
38	0x3d658f3a	0.056044795
39	0xbd8bba05	-0.0682259
40	0x3d5e0926	0.054207943
41	0xbe0477ae	-0.12936279
42	0xbd009924	-0.031396046
43	0x3ccc2b50	0.024922997
44	0x3d6f6502	0.058445938
45	0xbd4deb03	-0.050272953
46	0x3ddfc8f5	0.109270014
47	0x3db137ee	0.08653246
48	0xbda50608	-0.08057791
49	0x3d1840a2	0.037171014
50	0x3d80567c	0.062664956
51	0x3c918c55	0.01776711
52	0x3dbab259	0.09116048
53	0x3da7a423	0.081856035
54	0x3d951e43	0.072811626
55	0x3c821470	0.015878886
56	0xbdb0a63e	-0.08625458
57	0x3d5e12f7	0.054217305
58	0x3d8e4a7a	0.06947799
59	0x3c1f34df	0.009717195
60	0xbe01155d	-0.12605806
61	0xbd54cc3d	-0.05195259
62	0x3da4c141	0.08044673
63	0xbdfcc95f	-0.12343096
64	0xbac32dab	-0.001489093
65	0x3d6857cb	0.05672435
66	0xbdd8c369	-0.105841465
67	0xbe0d97dd	-0.13827462
68	0xbdb670ff	-0.08908271
69	0xbd3729ba	-0.044717528
70	0x3d98fd13	0.07470145
71	0xbe03f275	-0.12885459
72	0x3dc680f7	0.09692567
73	0x3b01f573	0.0019830137
74	0xbd505f38	-0.050872058
75	0xbcce2bf3	-0.025167441
76	0x3c9f46ef	0.019443003
77	0xbac773d1	-0.0015217011
78	0xbc9af575	-0.018915871
79	0x3c32a70d	0.010904086
80	0xbbc94c4a	-0.0061431276
81	0xbdc75fda	-0.09735079
82	0xbdfe3687	-0.12412744
83	0x3d96e731	0.07368315
84	0xbd80c993	-0.06288447
85	0xbbfb8d40	-0.0076767504
86	0xbc9ebb12	-0.019376311
87	0xbdb92d05	-0.0904179
88	0x3cdcf877	0.026973946
89	0xbd1fe1b1	-0.039033595
90	0x3de077b4	0.109603316
91	0xbcabb663	-0.020960992
92	0x3e046584	0.1292935
93	0x3d7147fa	0.058906533
94	0x3caaaded	0.020834887
95	0x3d015966	0.031579398
96	0xbda9224b	-0.08258494
97	0xbdd4166b	-0.103558384
98	0x3d78e86d	0.060768533
99	0x3d49f0b1	0.049301807
100	0x3d511856	0.0510486
101	0xbd869390	-0.06571114
102	0xbd2f35f9	-0.04277608
103	0xbdd84a26	-0.10561018
104	0x3d901474	0.07035151
105	0xbcf28aa1	-0.029607119
106	0xbc7d6a00	-0.015467167
107	0x3af7c3f8	0.0018903008
108	0x3dc35aa4	0.09538773
109	0xbc886359	-0.016648935
110	0xbd88ec84	-0.06685737
111	0xbd4309d8	-0.04761681
112	0xbd6a38f7	-0.057183232
113	0xbe027902	-0.12741473
114	0x3c86198b	0.016369602
115	0x3e051508	0.12996304
116	0x3c37f05a	0.011226738
117	0xbc0e0c6f	-0.008669957
118	0xbc9febc3	-0.0195216
119	0xbd8ab4a8	-0.06772739
120	0xbd9f9015	-0.07791153
121	0x3dc64586	0.09681229
122	0xbe02bcf9	-0.127674
123	0xbdf09255	-0.117466606
124	0xbe063b55	-0.13108571
125	0xbdd28a93	-0.10280337
126	0x3d4dc56b	0.0502371
127	0xbd025685	-0.031820793
128	0xbd4cf525	-0.050038476
129	0xbd12d650	-0.035848916
130	0x3ca28227	0.019837452
131	0xbde1141b	-0.10990163
132	0xbd9faf29	-0.07797081
133	0xbd4537c1	-0.048148874
134	0x3cf6f8d4	0.030147947
135	0x3e0087d4	0.12551814
136	0x3c407ec3	0.011748972
137	0x3d396476	0.045261823
138	0xbd236b09	-0.039897
139	0x3d616760	0.055030227
140	0x3e000b75	0.1250437
141	0x3d783f89	0.060607467
142	0x3d810e4e	0.063015565
143	0xbd1d8094	-0.0384527
144	0xbda249a5	-0.07924203
145	0x3da4af33	0.08041229
146	0x3c6c1179	0.014408463
147	0x3d99fc36	0.075188085
148	0x3df44df0	0.11928928
149	0xbd685102	-0.05671788
150	0x3bd8aaf4	0.006612176
151	0x3dc9f95d	0.098620154
152	0x3d5bded9	0.05367932
153	0x3ce060a6	0.027389836
154	0x3d31502e	0.043289356
155	0xbdc3f28f	-0.09567749
156	0x3cae6a8f	0.021291045
157	0xbd3b2248	-0.04568699
158	0xbd011253	-0.031511616
159	0x3def4fd3	0.11685147
160	0xbd907869	-0.070542164
161	0x3d87a404	0.066230804
162	0x3cd23cb0	0.025663704
163	0x3df241fb	0.11828991
164	0xbca090d9	-0.019600319
165	0xbbd3029f	-0.0064395214
166	0x3d2da1c9	0.04239062
167	0xbc9d3312	-0.019189391
168	0xbdcf9098	-0.10135001
169	0xbda31290	-0.07962525
170	0x3db592c4	0.08865884
171	0xbcced447	-0.025247706
172	0x3d54fb0c	0.05199723
173	0x3cdd5df2	0.027022336
174	0xbd88f0b8	-0.066865385
175	0xbdbb032f	-0.091314666
176	0xbcc81eba	-0.024428714
177	0xbcb0c166	-0.021576595
178	0x3de5093d	0.11183403
179	0x3ce4eaed	0.027944053
180	0xbc41d1a7	-0.01182977
181	0x3cbe1bc5	0.0232066
182	0x3d1a27a6	0.037635468
183	0x3dcdf0dd	0.10055707
184	0xbd2a0b88	-0.041514903
185	0x3db3202d	0.087463714
186	0xbded419c	-0.115847796
187	0x3cee7b57	0.029111547
188	0x3d878b97	0.066184215
189	0x3d6941f4	0.056947663
190	0xbd719049	-0.05897549
191	0x3cfa693c	0.030567758
192	0xbd7973fe	-0.060901634
193	0xbdfd2129	-0.123598404
194	0xbc636ba2	-0.013880642
195	0xbd6a7397	-0.05723914
196	0xbd3d64d1	-0.046238724
197	0xbc2846b0	-0.010270759
198	0xbda36dc4	-0.079799205
199	0xbb50ab8f	-0.0031840538
200	0xbd9b9489	-0.0759669
201	0xbdde0375	-0.10840503
202	0x3d16d4a6	0.03682389
203	0x3dc1f7bc	0.0947108
204	0xbd96db53	-0.073660515
205	0xbcb94717	-0.022616906
206	0x3db85d3e	0.090021595
207	0xbdb074e5	-0.08616046
208	0x3dd2a105	0.10284618
209	0x3ac3e966	0.0014946877
210	0x3dde8630	0.10865438
211	0xbde08094	-0.10962024
212	0x3cfa4dde	0.030554708
213	0xbdd9eb3b	-0.1064057
214	0x3de4320c	0.11142358
215	0x3d9b52d0	0.075841546
216	0xbdc13390	-0.09433663
217	0x3de55353	0.111975335
218	0xbd5d583d	-0.05403923
219	0xbbf141de	-0.0073625883
220	0xbdba5087	-0.090973906
221	0x3c4ca7bb	0.012491162
222	0x3d258c9b	0.040417295
223	0x3d289c79	0.04116485
224	0xbc94c1c3	-0.018158799
225	0xbd8bf7bb	-0.0683436
226	0xbda7284c	-0.08161983
227	0xbd544c40	-0.05183053
228	0x3d3e9e25	0.046537537
229	0x3e0bcc52	0.13652161
230	0xbc314af0	-0.010821089
231	0x3db6c2cc	0.08923873
232	0x3d1d1ad4	0.038355663
233	0xbc916650	-0.017748982
234	0xbd8bf67b	-0.06834122
235	0x3dc07a8f	0.09398376
236	0xbd1b8370	-0.037967145
237	0x3d3e3c00	0.04644394
238	0xbb4a15a4	-0.0030835653
239	0xbdbfe7de	-0.09370397
240	0xbc978aa0	-0.018498719
241	0xbce126ef	-0.027484385
242	0xbd9af098	-0.07565421
243	0xbd9e8a4a	-0.0774122
244	0xbd1698ae	-0.0367667
245	0xbdce9982	-0.10087873
246	0x3ccb49d8	0.024815485
247	0xbdfa002e	-0.122070655
248	0x3d208fb5	0.03919955
249	0xbdb393f7	-0.087684564
250	0xbdd257ef	-0.10270678
251	0xbd83fb71	-0.06444443
252	0xbdeeb53c	-0.116556615
253	0x3dfe91ae	0.1243013
254	0x3c19777d	0.009366867
255	0xbd05b58c	-0.03264384

lstm.weight_hh_l1 f4 [256, 64]
0	0x3d691a24	0.056909695
1	0xbdd1c161	-0.10241962
2	0x3de9a245	0.114079036
3	0x3d51493a	0.051095225
4	0x3dacdbc5	0.08440355
5	0x3ddde4cd	0.10834656
6	0xbcf6c882	-0.030124906
7	0x3e044cca	0.12919918
8	0x3d245b4c	0.04012613
9	0x3e00476f	0.1252725
10	0xbdabe5b3	-0.08393421
11	0xbdb78874	-0.08961573
12	0xbdd98440	-0.10620928
13	0x3d97f7a8	0.074202836
14	0xbc880442	-0.016603593
15	0x3d7226fe	0.059119217
16	0xbd58cecf	-0.052931603
17	0xbd96ea52	-0.07368912
18	0xbde757b3	-0.11296024
19	0x3d74db79	0.059779618
20	0x3d34c35e	0.04413163
21	0xbcf0b389	-0.029382484
22	0xbddf904e	-0.10916196
23	0x3d060168	0.032716185
24	0x3d03431c	0.032046422
25	0xbdd11f14	-0.10211006
26	0xbdc20bc1	-0.09474898
27	0x3cc26659	0.023730444
28	0xbd99a486	-0.075020835
29	0xbcb9d8bf	-0.02268636
30	0xbc956a6d	-0.018239224
31	0x3daab3bd	0.083350636
32	0xbde5bdc3	-0.11217835
33	0x3d9c1e47	0.076229624
34	0x3d195bf4	0.03744121
35	0xbdd0522d	-0.10171924
36	0xbda5be29	-0.08092911
37	0xbd12b8ad	-0.03582065
38	0x3ddfac53	0.1092154
39	0xbb87fecf	-0.0041502486
40	0x3d090957	0.033456173
41	0x3b81654e	0.003948844
42	0x3d13f529	0.036122475
43	0x3d8c69e3	0.06856134
44	0x3bd3968c	0.0064571556
45	0x3d6a2749	0.05716637
46	0xbdd45417	-0.10367601
47	0xbd0f800f	-0.035034236
48	0x3dbdfd4c	0.09276828
49	0xbda57b92	-0.0808021
50	0x3ddb9562	0.10721852
51	0xbc997282	-0.01873136
52	0x3b7324dc	0.0037100827
53	0xbe0390b0	-0.12848163
54	0xbdc05ae1	-0.09392334
55	0x3c85fabd	0.016354913
56	0xbdf19796	-0.11796491
57	0xbc8dea3a	-0.017323602
58	0x3d608407	0.05481341
59	0x3dd91bd0	0.10601008
60	0xbc7bf7da	-0.015378917
61	0xbda714d4	-0.081582695
62	0x3deb3c1c	0.11486074
63	0xbd986c97	-0.07442587
64	0xbdff944a	-0.12479456
65	0xbd5f2743	-0.054480802
66	0x3dee4cda	0.11635752
67	0xbd9333fb	-0.07187649
68	0x3dbb1195	0.09134213
69	0xbda2c037	-0.07946818
70	0xbdea13eb	-0.1142958
71	0xbceafb14	-0.028684177
72	0xbd24ccdd	-0.040234435
73	0xbd164ab7	-0.036692347
74	0x3c9b92b0	0.018990844
75	0xbad3ffac	-0.0016174219
76	0xbcac4930	-0.021030992
77	0x3c982a7a	0.018574942
78	0x3de575e7	0.11204129
79	0xbd87c8a9	-0.0663007
80	0xbdeb41cb	-0.114871584
81	0xbdb3149a	-0.08744164
82	0xbdb51a51	-0.0884291
83	0x3dd5ce36	0.10439722
84	0x3d89c4b0	0.06726968
85	0xbd91896c	-0.07106289
86	0x3d908924	0.070574075
87	0xbc2acc05	-0.010424619
88	0x3ceab2db	0.028649738
89	0xbe006037	-0.12536703
90	0xbd838655	-0.06422106
91	0x3ba865bc	0.005139081
92	0x3cd96623	0.02653796
93	0xbdad6166	-0.08465843
94	0x3b033caa	0.0020025172
95	0x3d9f4c80	0.07778263
96	0x3d31ad51	0.043378178
97	0xbde8cfd8	-0.11367768
98	0xbd445848	-0.047935754
99	0x3cbda87a	0.023151625
100	0x3cb70095	0.022339145
101	0xbdc0b81d	-0.09410117
102	0xbbe510fe	-0.006990551
103	0x3b25c658	0.0025295224
104	0x3b959633	0.0045650243
105	0x3dc3aa02	0.09553911
106	0x3b936cec	0.0044990685
107	0xbc8be1d9	-0.017075466
108	0xbca9ba4d	-0.020718718
109	0xbb0bd585	-0.0021336984
110	0xbdbe773f	-0.09300088
111	0xbc3af52c	-0.011410993
112	0xbd274eda	-0.040846683
113	0xbda10884	-0.07862952
114	0x3c34f50a	0.01104475
115	0x3d56df4e	0.052459054
116	0x3b9b9606	0.004748109
117	0x3cfa9fc5	0.030593762
118	0xbdb06cc7	-0.08614498
119	0x3d633088	0.055466205
120	0xbdfa4a96	-0.122212574
121	0x3da3e19b	0.08002015
122	0xbdb75603	-0.08951952
123	0x3dd998ec	0.10624871
124	0x3d65ddec	0.056119844
125	0xbdc51981	-0.09624005
126	0x3d9b7f20	0.075926065
127	0x3dcc72eb	0.09982856
128	0xbd101842	-0.035179384
129	0xbd25231f	-0.040316697
130	0x3d6de30e	0.058077864
131	0xbdb7a737	-0.089674406
132	0x3d9bfa40	0.07616091
133	0x3d8d80dc	0.069093436
134	0xbdd34a99	-0.10316963
135	0xbdf28f38	-0.11843723
136	0x3d4d5d1c	0.050137624
137	0xbd29bc30	-0.041439235
138	0x3b800c8e	0.0039077466
139	0xbd7a07f6	-0.06104275
140	0xbe04cf6a	-0.12969747
141	0x3d9f901e	0.0779116
142	0x3d7c22b7	0.061556544
143	0x3d35ac45	0.044353742
144	0x3d91953e	0.07108544
145	0xbdcf695d	-0.10127518
146	0x3d98caa4	0.07460526
147	0xbb533a65	-0.003223085
148	0xbd693740	-0.056937456
149	0x3db5a7ad	0.08869872
150	0x3db814a2	0.089883104
151	0x3d2f64db	0.042820793
152	0x3d4c0013	0.04980476
153	0x3b8f598a	0.0043746876
154	0xbd1f7c14	-0.03893669
155	0xbcf32eb4	-0.029685356
156	0x3db2ecad	0.087365486
157	0x3c0fca59	0.008776271
158	0x3cdb1c68	0.026746944
159	0x3dd0838b	0.1018134
160	0xbd685759	-0.056723926
161	0xbd907011	-0.07052625
162	0x3d370af8	0.044688195
163	0x3d14b6e8	0.036307245
164	0x3d26cde0	0.04072368
165	0x3d886a24	0.0666087
166	0xbd561a0b	-0.05227093
167	0x3d91e570	0.0712384
168	0xbd2d4c23	-0.042308938
169	0xbd8e0d1a	-0.06936093
170	0xbbb6ff0e	-0.005584604
171	0x3dbbbad9	0.09166498
172	0x3c8790c6	0.016548526
173	0xbb66064a	-0.0035098963
174	0x3d64a7d4	0.055824116
175	0x3da8585a	0.08219977
176	0x3dd084ff	0.10181617
177	0x3db175b2	0.08665027
178	0x3d9ee4a4	0.077584535
179	0xbcd2d341	-0.0257355
180	0x3b32ac4d	0.0027263344
181	0xbd0176cf	-0.031607445
182	0xbddddd6c	-0.108332485
183	0x3cb72d9c	0.022360615
184	0xbdb6795d	-0.08909867
185	0xbdc7ed2b	-0.09762033
186	0x3cb9d68b	0.02268531
187	0x3c37fcad	0.011229676
188	0x3d7fcca8	0.062451035
189	0x3dfd873b	0.12379309
190	0x3cee6d22	0.029104773
191	0xbb673b94	-0.0035283314
192	0xbd4c9f5c	-0.049956664
193	0x3d10eb5d	0.03538071
194	0xbd1f7b05	-0.03893568
195	0x3d98c7c0	0.07459974
196	0xbe03c880	-0.12869453
197	0x3c4a3e7d	0.012344
198	0xbd4aeb18	-0.04954061
199	0x3cb35646	0.021891724
200	0xbe048e47	-0.129449
201	0xbda80e6b	-0.08205875
202	0xbaec438c	-0.0018025502
203	0x3d7ced4e	0.06174975
204	0x3dcc614a	0.09979494
205	0x3d8ac58d	0.06775961
206	0xbd166be1	-0.036723975
207	0xbd29014b	-0.041261
208	0xbd079a44	-0.033106104
209	0xbb515b74	-0.003194538
210	0x3d92ac25	0.0716174
211	0x3d8d1b98	0.06890029
212	0x3d931cf3	0.07183256
213	0xbbd31725	-0.006441968
214	0xbd76867a	-0.06018684
215	0xbdb51c2a	-0.088432625
216	0x3d75a4d2	0.059971638
217	0xbd2e4286	-0.04254391
218	0xbd7d0176	-0.06176897
219	0xbd4fe47b	-0.050755005
220	0xbdbd2703	-0.092359565
221	0xbde1dd79	-0.11028571
222	0x3ca2a9c6	0.019856345
223	0x3dbc8cfc	0.09206578
224	0x3d693a6b	0.056940477
225	0x3d916f3e	0.07101296
226	0x3def99a2	0.11699225
227	0xbdc8e31c	-0.09808943
228	0x3da67ac9	0.08128888
229	0x3d016a45	0.031595487
230	0x3a0c0699	0.00053415593
231	0xbd661591	-0.05617291
232	0xbd54266b	-0.05179445
233	0x3cea3641	0.028590323
234	0xbd8d3fec	-0.06896958
235	0xbe09e5d9	-0.13466586
236	0xbc58155f	-0.013188689
237	0x3c9f0c06	0.019414913
238	0x3d4c4a9d	0.049875844
239	0x3cd5bd55	0.026091257
240	0xbdc23692	-0.09483065
241	0xbdd0884c	-0.101822466
242	0xbd916a72	-0.07100381
243	0x3d6752d6	0.056475483
244	0x3d849d51	0.06475318
245	0x3d48eb25	0.049052376
246	0x3db692da	0.089147285
247	0x3c3a9097	0.011387012
248	0x3df805e5	0.12110499
249	0x3b276abf	0.0025545803
250	0x3ce45829	0.02787407
251	0x3d562bd5	0.052287895
252	0xbdc8c41b	-0.09803029
253	0x3dfaeda1	0.12252355
254	0xbd39c89a	-0.045357324
255	0xbcdffdd6	-0.027342718

lstm.bias_ih_l1 f4 [256]
0	0x3cc66451	0.024217756
1	0xbe02498f	-0.12723373
2	0xbdc47318	-0.09592265
3	0x3d617796	0.055045687
4	0x3db6f621	0.08933664
5	0xbdf170ea	-0.11789115
6	0xbd2c5bcb	-0.042079728
7	0x3c9a3e21	0.018828453
8	0xbd8bfaa0	-0.06834912
9	0xbdb8878c	-0.090102285
10	0x3d01453e	0.031560175
11	0xbda8ae39	-0.08236355
12	0xbcd85809	-0.026409166
13	0x3d848832	0.0647129
14	0x3dddaf5b	0.10824462
15	0x3d70ded1	0.058806244
16	0xbca6ae58	-0.020346805
17	0xbda20cd7	-0.07912605
18	0x3dec16dd	0.11527798
19	0x3d7a8d66	0.061170004
20	0xbd746436	-0.05966588
21	0xbd8b7ba8	-0.06810695
22	0xbdd140ec	-0.10217461
23	0xbdde9104	-0.10867503
24	0x3d9475b0	0.072490096
25	0x3dc0785c	0.09397957
26	0x3d300a08	0.042978317
27	0x3d1daaaa	0.038492836
28	0x3d8a9de6	0.06768398
29	0xbd9acc11	-0.07558454
30	0xbc22be13	-0.009933013
31	0x3c4e2d9a	0.012584114
32	0xbdfcb09f	-0.12338375
33	0xbcc545f2	-0.024081204
34	0xbd602330	-0.054721057
35	0xbd880c15	-0.066429295
36	0x3d2022f3	0.03909583
37	0xbd877979	-0.06614966
38	0xbdbf7d77	-0.093501024
39	0x3d0bb6b1	0.034109775
40	0xbdcbd5aa	-0.099528626
41	0xbd52071e	-0.05127632
42	0x3d5f604a	0.054535188
43	0x3d5acd13	0.05341823
44	0xbd16f1de	-0.036851756
45	0x3cfddbab	0.030988535
46	0x3d95f777	0.07322591
47	0x3cdf7711	0.027278455
48	0x3d61b42d	0.05510347
49	0x3bf8246e	0.007572702
50	0xbd5c25e8	-0.053747088
51	0x3d9f943b	0.077919446
52	0x3d86781d	0.065658785
53	0x3dcca68e	0.09992705
54	0x3d4939f2	0.049127527
55	0x3df51893	0.11967578
56	0xbcd148be	-0.025547381
57	0x3d92be9b	0.07165261
58	0xbe106dd0	-0.1410439
59	0x3dba8814	0.09107986
60	0xbd984352	-0.07434715
61	0x3d5adf5b	0.053435665
62	0x3c4049fa	0.011736387
63	0xbdc1197f	-0.09428691
64	0x3d260307	0.04053023
65	0x3cf879bb	0.030331483
66	0xbdcf2e22	-0.10116221
67	0x3d33a949	0.043862615
68	0x3d8745c2	0.06605102
69	0xbdedcb60	-0.11611056
70	0xbd9b99f8	-0.075977266
71	0xbdbce278	-0.09222883
72	0xbdd54f93	-0.10415568
73	0xbc3cea5a	-0.011530483
74	0xbdb1e95a	-0.086870864
75	0x3b684607	0.003544213
76	0x3dc707b8	0.09718269
77	0x3b25fab5	0.0025326435
78	0xbc614507	-0.013749368
79	0xbd011637	-0.031515326
80	0x3d932db2	0.0718645
81	0xbde3c3f1	-0.11121357
82	0xbdac1b9d	-0.08403704
83	0xbd38d04c	-0.045120522
84	0x3d2b66d1	0.0418461
85	0xbd48ad26	-0.048993252
86	0x3c94d4f1	0.018167945
87	0x3df235c7	0.118266635
88	0xbd50783a	-0.050895907
89	0x3d877216	0.06613557
90	0x3dd64b63	0.104635976
91	0xbe108832	-0.14114454
92	0xbdaa9abd	-0.08330295
93	0x3df1c854	0.11805788
94	0xbe0b230b	-0.13587587
95	0xbd60042b	-0.054691475
96	0xbdfe3673	-0.12412729
97	0xbdf814aa	-0.12113316
98	0x3b394d65	0.002827489
99	0x3bae6d40	0.005323082
100	0xbd055f79	-0.032561753
101	0xbd6bc2b4	-0.05755873
102	0x3ce3a804	0.027790077
103	0x3c91e332	0.01780853
104	0xbd1b1fb7	-0.037872043
105	0x3cd17023	0.025566166
106	0x3d64a5b7	0.0558221
107	0x3df9262c	0.12165484
108	0x3d93b7c7	0.07212787
109	0x3d37d42b	0.044880074
110	0xbd34d3ac	-0.04414718
111	0xbe13f6eb	-0.1444966
112	0x3d3f3457	0.046680775
113	0x3d26e852	0.0407489
114	0x3cefe97f	0.029286144
115	0x3ddf7ae4	0.109121114
116	0xbd34d796	-0.04415091
117	0xbd97dc00	-0.074150085
118	0xbd04be2b	-0.03240792
119	0x3d09438b	0.03351168
120	0x3cd46b01	0.02592993
121	0x3de601b5	0.11230794
122	0x3cfc2376	0.030778628
123	0xbdda9764	-0.10673407
124	0xbd79778e	-0.06090503
125	0x3d8bd9b0	0.0682863
126	0xbc7141d6	-0.014725169
127	0x3dee9962	0.11650349
128	0x3dab1d9d	0.08355258
129	0xbdc5cfd0	-0.09658778
130	0xbd8199cd	-0.06328163
131	0x3c66314b	0.014049838
132	0x3dcf787a	0.10130401
133	0xbd5308e6	-0.051522158
134	0xbc627ae2	-0.013823243
135	0x3d1438ab	0.036186855
136	0xbdd1142b	-0.10208925
137	0x3dcbbe4e	0.09948407
138	0x3d12576f	0.035727914
139	0x3d7ccbd3	0.06171782
140	0xbdb9238b	-0.090399824
141	0xbd71990b	-0.058983844
142	0x3dd96b5f	0.106161825
143	0xbd2ac5b7	-0.04169246
144	0x3cee4410	0.02908519
145	0xbd30b939	-0.043145392
146	0xbd2da480	-0.042393208
147	0x3c98b038	0.018638715
148	0xbc80cbab	-0.015722116
149	0x3da70741	0.081556804
150	0x3d8cac70	0.06868827
151	0xbddbf05b	-0.107392035
152	0x3d1e53c7	0.038654115
153	0xbd2b0b68	-0.041758925
154	0xbd08f450	-0.03343612
155	0xbd3687d9	-0.04456315
156	0x3dadbe85	0.08483604
157	0x3d2cd68a	0.042196788
158	0x3d98eccb	0.0746704
159	0x3ca64c33	0.020300006
160	0x3d7df58d	0.062001754
161	0x3c175570	0.0092366785
162	0x3dfdfd24	0.12401798
163	0x3dcb0d92	0.09914698
164	0xbe11659b	-0.14198916
165	0xbdc8b5de	-0.098003134
166	0xbd777227	-0.0604116
167	0x3ca116e6	0.01966424
168	0x3d946219	0.07245273
169	0xbcf1af3e	-0.029502507
170	0xbd9454f8	-0.07242769
171	0xbdb5e001	-0.08880616
172	0x3dc3c410	0.0955888
173	0xbd9d481d	-0.0767977
174	0xbc398cbc	-0.011325058
175	0x3d941e32	0.07232322
176	0xbdb2406c	-0.08703694
177	0xbdbe5815	-0.09294144
178	0x3de7e81c	0.11323568
179	0xbdf41f71	-0.119200595
180	0x3daf4765	0.08558539
181	0xbd44f509	-0.048085246
182	0x3da4f9ff	0.080554955
183	0xbd693d9a	-0.056943513
184	0x3dba8afc	0.091085404
185	0xbd26ffb7	-0.040771212
186	0xbabf92fb	-0.0014615947
187	0xbe031928	-0.12802565
188	0xbd7a43d0	-0.061099827
189	0x3e15390d	0.14572544
190	0x3d1d3d77	0.038388696
191	0xbd2eccd7	-0.04267582
192	0xbd84c74d	-0.06483326
193	0xbd8efea3	-0.06982162
194	0x3d62d52e	0.055379085
195	0xbdd161b7	-0.10223716
196	0xbdcf0852	-0.10109009
197	0x3d90dedb	0.07073756
198	0xbabbe977	-0.0014336546
199	0x3da49426	0.080360696
200	0x3d9402de	0.072271094
201	0xbcdbdc6e	-0.026838508
202	0xbd96d684	-0.07365134
203	0xbc4cc0ba	-0.0124971215
204	0xbdab744c	-0.08371791
205	0xbe193083	-0.14959912
206	0xbcb29d5e	-0.021803554
207	0xbd43ca4c	-0.047800347
208	0x3dc1ae0b	0.09457024
209	0x3ca34948	0.019932404
210	0x3dd8b31b	0.10581037
211	0x3d9474eb	0.07248863
212	0xbde2344d	-0.11045132
213	0xbd36f027	-0.04466262
214	0xbd33bac8	-0.0438793
215	0x3d313333	0.043261718
216	0x3d52f710	0.05150515
217	0x3b79eab7	0.0038134286
218	0x3cd8d0e0	0.026466787
219	0x3b450321	0.003006168
220	0x38aa190d	8.110898e-05
221	0xbcaab15e	-0.020836528
222	0x3cb64c55	0.022253195
223	0x3db7cdb3	0.08974781
224	0x3c8dfa09	0.01733114
225	0x3dd3d1df	0.10342764
226	0xbd110710	-0.035407126
227	0x3d2cf129	0.042222176
228	0x3ddaaa40	0.10677004
229	0xbe04ab2c	-0.12955922
230	0xbd08e99a	-0.033425905
231	0xbdd8d867	-0.105881505
232	0x3db57f94	0.08862224
233	0xbd7201a5	-0.0590836
234	0xbd8eb455	-0.06967989
235	0xbda7a706	-0.08186154
236	0x3d9a325c	0.075291365
237	0x3d7c5e5c	0.061613426
238	0xbdc3c090	-0.09558213
239	0x3dc3d045	0.09561209
240	0x3bb97709	0.005659942
241	0x3c2f4a2d	0.010698837
242	0xbc8a064d	-0.016848708
243	0x3d38bb46	0.045100473
244	0x3d599b9c	0.053126916
245	0xbdcd4f52	-0.10024895
246	0x3da72990	0.08162224
247	0xbdbe8496	-0.093026325
248	0x3d93b4bc	0.07212207
249	0xbca24a6f	-0.019810883
250	0xbe0b5c99	-0.13609542
251	0x3cfb8112	0.030701194
252	0xba6c81db	-0.00090220355
253	0xbde213de	-0.110389456
254	0x3cbff235	0.023430923
255	0x3da76ec9	0.081754275
